weight2/150000.pt (torch_old, 11869 bytes, 6 tensors)

critic.0.weight f4 [256, 3]
-0.2256695 -0.2827296 -0.28654292 0.00027632102 -0.51255554 -0.23156057 -0.21630426 -0.3964582
-0.26303536 -0.16532816 -0.3504947 -0.2740136 -0.27043435 -0.255829 -0.30017874 -0.6952971
0.0677063 0.7006255 -0.24255332 -0.27871993 -0.29179603 2.5518494 0.9286505 -0.27055863
-1.2661388 0.95380324 0.8217105 -1.278528 0.6887693 0.80996615 -0.038494725 -0.37008858
-0.24104747 -0.14015177 -0.25503197 -0.27044085 4.9417453 -0.49734104 0.44228908 -1.2031729
0.863372 0.80710477 -0.6152226 -0.02486689 0.6973073 -0.14829022 -0.1701686 -0.13103835
-0.29949486 -0.5122702 -0.33294174 -1.2021445 0.61678225 0.7859032 -0.33525512 -0.21245389
-0.31223437 3.661628 2.4364197 0.038847584 -0.40364715 -0.40961298 -0.31630334 -1.3280541
0.7949824 0.79870355 -0.5871885 0.02533239 0.69257796 -0.18967706 -0.48929438 -0.25233212
-1.1923027 0.7801751 0.7687227 -1.235024 0.9785247 0.8091095 -0.8100852 0.022118507
0.70442873 -1.1546305 0.86506087 0.8029943 -0.58607936 0.14039111 0.6984298 -1.1246732
0.8540662 0.80458826 3.3581526 1.388217 -0.05184796 -0.92034817 -0.18553184 0.69139445
-0.5867344 0.10951487 0.07711448 2.2925122 0.8894655 -0.15003198 0.014874957 -0.044546183
-0.07627834 -0.2429667 -0.17254628 -0.094853945 -1.0977774 1.1099082 0.78906274 -1.0641448
-0.02013804 0.7018996 -0.38056046 -0.56009054 -0.31982583 -0.26039878 -0.35374165 -0.2698026
-0.030470934 0.030221269 -0.2591058 -1.1783115 0.9319372 0.78909326 -1.1256378 0.19032824
0.72853744 -0.24194974 -0.37845603 -0.29443833 -1.1091803 0.13406573 0.7227236 -0.7738066
-0.15968114 0.69705635 -0.21281575 -0.23576126 -0.28263348 -0.42667794 -0.1654018 0.68661183
2.313808 2.1649408 2.6871507 -0.24831171 -0.40861967 -0.28748232 -1.1363556 0.5877728
0.795829 -1.1194466 0.15231596 0.7143054 -0.72198796 0.16561258 0.08233474 -1.136066
0.38996854 0.7870591 -1.2415103 0.8456456 0.7994634 0.031669524 0.018940443 0.047459543
-0.038106807 0.008658867 0.030685836 -0.38862786 -0.18586248 -0.3288715 -0.36775276 -0.35748604
-0.302271 -0.12350362 0.089179024 0.038919196 -1.1221966 0.41237858 0.7739717 -0.25863507
-0.13441032 -0.302091 -1.123525 0.08042666 0.7082431 -1.1147295 0.5372135 0.78123784
-1.1454333 0.57175106 0.79132104 0.3858057 0.45348245 0.048665024 -0.8305443 -0.21126658
0.6763806 -1.2946713 0.976261 0.8290247 -0.013862229 -0.23451944 -0.24782118 -0.42173067
-0.43627033 -0.31943443 -0.15947144 -0.5380898 -0.23120996 -1.2396417 0.8637988 0.8232561
-0.2524984 -0.31865397 -0.28850317 -0.1403388 -0.46806118 -0.26046938 2.3364015 0.9547884
-0.21016155 -0.22097957 -0.33506125 -0.26312444 0.16215304 0.43360808 0.06061505 -0.4636365
0.27109358 0.6393574 -1.1555841 0.45215753 0.7831311 2.2709723 0.65803075 -0.10350648
-0.7229575 0.073282346 0.68887556 -1.0650848 0.033317406 0.7010004 -0.6484314 0.22732152
0.08877979 -0.6059767 0.33031094 0.11583978 -0.17617592 -0.42774084 -0.25976366 -0.03944164
00000000: e815 67be efc1 90be c1b5 92be 2edf 9039
00000010: d736 03bf 371e 6dbe dd7e 5dbe 92fc cabe
00000020: 92ac 86be c94b 29be 0b74 b3be 834b 8cbe
00000030: 5f76 8abe 05fc 82be 07b1 99be fefe 31bf
00000040: 9aa9 8a3d 315c 333f e65f 78be 61b4 8ebe
00000050: 4a66 95be 8051 2340 0abc 6d3f a986 8abe
00000060: d610 a2bf 732c 743f 9f5b 523f cea6 a3bf
00000070: 2f53 303f f159 4f3f a5ac 1dbd 407c bdbe
00000080: 26d5 76be f283 0fbe 8d93 82be 3977 8abe
00000090: c722 9e40 7ca3 febe b773 e23e 9201 9abf
000000a0: f305 5d3f 6b9e 4e3f 3a7f 1dbf a6b5 cbbc
000000b0: bb82 323f 64d9 17be ad40 2ebe eb2e 06be
000000c0: 6457 99be 2424 03bf 5777 aabe dfdf 99bf
000000d0: 71e5 1d3f f430 493f 8fa6 abbe 838d 59be
000000e0: 2fdd 9fbe 1d58 6a40 4dee 1b40 a51e 1f3d
000000f0: d7aa cebe cbb8 d1be 83f2 a1be adfd a9bf
00000100: f783 4b3f d677 4c3f fc51 16bf df85 cf3c
00000110: ca4c 313f b43a 42be cb84 fabe ad31 81be
00000120: 609d 98bf 8eb9 473f 03cb 443f 4415 9ebf
00000130: 9880 7a3f cd21 4f3f be61 4fbf df31 b53c
00000140: 7155 343f efca 93bf a174 5d3f 0991 4d3f
00000150: 4c09 16bf b0c2 0f3e 4ccc 323f 4bf5 8fbf
00000160: 15a4 5a3f 7ff9 4d3f f9eb 5640 18b1 b13f
00000170: 875e 54bd f09b 6bbf 0ffc 3dbe 3aff 303f
00000180: 3a34 16bf 5549 e03d 32ee 9d3d 85b8 1240
00000190: 03b4 633f fca1 19be 17b6 733c 0f76 36bd
000001a0: d137 9cbd 43cc 78be f9af 30be c942 c2bd
000001b0: f883 8cbf 7911 8e3f 0400 4a3f e635 88bf
000001c0: 88f8 a4bc b1af 333f d2d8 c2be 1862 0fbf
000001d0: 36c0 a3be fd52 85be a01d b5be 9123 8abe
000001e0: 2e9e f9bc 9892 f73c 84a9 84be e9d2 96bf
000001f0: 7093 6e3f 0402 4a3f e614 90bf 68e5 423e
00000200: 6e81 3a3f acc1 77be fdc4 c1be 9fc0 96be
00000210: 9ff9 8dbf 8748 093e 6a04 393f 3018 46bf
00000220: 7483 23be 4972 323f 5fec 59be 666b 71be
00000230: 56b5 90be 8875 dabe 175f 29be cbc5 2f3f
00000240: 6e15 1440 648e 0a40 47fa 2b40 6d45 7ebe
00000250: 9936 d1be e230 93be 1a74 91bf 4778 163f
00000260: 73bb 4b3f 074a 8fbf b7f8 1b3e b8dc 363f
00000270: 34d4 38bf 5896 293e 1e9f a83d 9c6a 91bf
00000280: f5a9 c73e b57c 493f cfe9 9ebf 3b7c 583f
00000290: a2a9 4c3f e7b7 013d fd28 9b3c f064 423d
000002a0: e215 1cbd ecdd 0d3c dd60 fb3c 3bfa c6be
000002b0: bc52 3ebe d861 a8be 174a bcbe 6908 b7be
000002c0: 44c3 9abe 77ef fcbd 7ea3 b63d bc69 1f3d
000002d0: 23a4 8fbf 4923 d33e 0223 463f d16b 84be
000002e0: dca2 09be acab 9abe abcf 8fbf bcb6 a43d
000002f0: 6b4f 353f 75af 8ebf d386 093f 34ff 473f
00000300: 8f9d 92bf 475e 123f 0494 4a3f 5388 c53e
00000310: da2e e83e fa54 473d 8d9e 54bf 4456 58be
00000320: 4727 2d3f cab7 a5bf 3eec 793f f63a 543f
00000330: 671e 63bc dd25 70be d6c4 7dbe 15ed d7be
00000340: d35e dfbe e98c a3be 7b4c 23be 41c0 09bf
00000350: 4ec2 6cbe 94ac 9ebf eb21 5d3f e9c0 523f
00000360: 7847 81be 9d26 a3be b0b6 93be f9b4 0fbe
00000370: b7a5 efbe 3e5c 85be 9a87 1540 036d 743f
00000380: 9734 57be 7848 62be 268d abbe 3fb8 86be
00000390: 720b 263e e101 de3e 7d47 783d c361 edbe
000003a0: c7cc 8a3e edac 233f 2eea 93bf 3181 e73e
000003b0: 487b 483f 9c57 1140 b474 283f 35fb d3bd
000003c0: be13 39bf 0e15 963d 265a 303f b354 88bf
000003d0: d577 083d c374 333f 9aff 25bf f9c6 683e
000003e0: 2ed2 b53d 4a21 1bbf 841e a93e 683d ed3d
000003f0: 7667 34be d900 dbbe beff 84be 8f8d 21bd

critic.0.bias f4 [256]
2.312697 2.3024929 2.2437787 2.3161995 2.3010044 1.6122948 2.3243506 2.0915058
1.3881705 1.4893496 2.2537332 2.2681282 0.8000709 1.3472078 1.6067487 2.2828693
2.3388655 1.4200896 2.3234076 1.1673942 2.312651 1.4310125 1.5934825 2.249524
1.3029214 1.3575703 1.6688199 1.3191203 1.6216218 1.3045151 1.2904706 1.6382815
2.3168619 1.9026668 2.2500715 2.1855478 1.2016207 1.6123028 2.302234 2.223451
2.1943512 1.2791626 1.5370954 2.3431182 1.5591633 1.68348 2.270469 1.6925056
-1.246795 2.3276591 1.4017406 1.5114703 2.266399 1.4995557 1.3522496 2.203049
2.2470756 2.3390744 2.2747316 2.2943327 1.4437004 2.2808783 1.5867127 1.3745533
1.4084278 2.1157978 1.6163839 1.4093366 2.23368 2.284536 2.2081177 1.3919424
2.298532 2.3202014 1.9207084 2.2098312 2.1766658 1.5740646 1.4642141 1.9765438
1.5096598 1.5625813 2.2393339 2.24686 2.2640014 2.2309995 2.1504605 2.3283587
1.6133162 1.66628 2.251342 1.864959 2.324167 2.3084455 1.579161 1.3419272
1.4094635 2.19064 2.2380917 2.313863 2.2249618 1.4441019 1.4571042 2.2100108
1.4163805 2.1826413 1.681891 2.3604589 1.3674151 2.1593878 1.3118227 2.2657964
2.2945333 1.4166112 2.270273 1.6542448 1.337975 1.4122189 2.265698 1.6557001
2.2339187 2.2669518 1.607942 2.2891102 2.2821817 2.2501144 2.2791376 2.3455625
2.120788 1.6196128 2.2918143 2.2958581 1.5491285 1.3962 2.22066 2.1453328
2.3795676 2.2871447 1.6460586 1.9352416 2.2171118 1.6272948 2.3109426 1.4976327
2.3487425 1.3390721 2.2780313 2.3037834 2.3091016 1.9584311 2.2990484 -0.13498487
2.3240223 2.1519186 1.624319 2.2472007 1.9768492 2.2257433 2.321261 2.2723165
2.2787375 2.3176544 2.1897578 -0.8985673 2.2774107 1.5884243 1.5024488 2.255083
2.2347884 2.2902994 2.2550519 2.2944765 2.328719 2.3392096 2.2489512 1.2691098
2.2521977 1.2712395 1.5780898 2.1836386 1.3569888 -0.92760634 2.2538166 1.3452771
2.309468 2.3220334 2.2203329 1.5291739 2.2698207 -0.20434771 2.2246785 1.419823
2.2407765 2.1911628 1.6669983 2.3080957 1.5879177 1.6838362 -0.55799973 2.321868
2.1921134 1.4354125 2.2595913 2.2447598 2.2352147 2.2884138 1.5707252 2.2758026
2.3135436 2.29563 2.2781317 1.6371596 1.4629282 2.2554276 1.4629458 2.3024945
2.318975 2.3075583 2.280653 2.31911 2.310888 2.3465154 2.2109792 1.4499345
2.2448823 2.2581718 -0.55576885 1.6491673 1.6078763 2.2212095 1.6031015 2.1931362
2.2079582 1.5908177 0.75683373 1.4215193 1.4678679 2.223649 2.2307997 -0.9479551
2.253204 2.256878 2.2071147 2.3076172 2.3504477 2.2626917 2.3358474 1.3969742
2.337118 2.3036497 2.2994258 1.3634497 2.2698226 2.3145907 2.3125618 2.3070548
00000000: 3a03 1440 0b5c 1340 129a 0f40 9d3c 1440
00000010: a843 1340 ad5f ce3f 29c2 1440 3bdb 0540
00000020: 92af b13f 02a3 be3f 2a3d 1040 0329 1140
00000030: 72d1 4c3f 4e71 ac3f f1a9 cd3f 881a 1240
00000040: f9af 1540 7fc5 b53f b6b2 1440 2c6d 953f
00000050: 7902 1440 6b2b b73f 3cf7 cb3f 34f8 0f40
00000060: 21c6 a63f ddc4 ad3f e49b d53f efd8 a83f
00000070: 4e91 cf3f 5afa a63f 242e a53f 35b3 d13f
00000080: 7747 1440 968a f33f 2c01 1040 04e0 0b40
00000090: b5ce 993f f05f ce3f cd57 1340 054d 0e40
000000a0: 4070 0c40 9abb a33f 8bbf c43f a6f5 1540
000000b0: aa92 c73f 467c d73f 5d4f 1140 06a4 d83f
000000c0: fb96 9fbf 5ef8 1440 3c6c b33f dc77 c13f
000000d0: ae0c 1140 71f1 bf3f 8416 ad3f c1fe 0c40
000000e0: 16d0 0f40 65b3 1540 3495 1140 59d6 1240
000000f0: 2dcb b83f e9f9 1140 6719 cb3f 5df1 af3f
00000100: 5d47 b43f 3b69 0740 abe5 ce3f 2465 b43f
00000110: 9df4 0e40 d635 1240 cd51 0d40 2b2b b23f
00000120: 261b 1340 2e7e 1440 c6d9 f53f e06d 0d40
00000130: 7e4e 0b40 f37a c93f 5e6b bb3f 63ff fc3f
00000140: 883c c13f aa02 c83f 3f51 0f40 8ecc 0f40
00000150: 66e5 1040 b2c8 0e40 25a1 0940 d403 1540
00000160: 2581 ce3f aa48 d53f fd15 1040 fab6 ee3f
00000170: 27bf 1440 92bd 1340 f321 ca3f 45c4 ab3f
00000180: 4d69 b43f 7233 0c40 e53c 0f40 5516 1440
00000190: c665 0e40 55d8 b83f 6482 ba3f d170 0d40
000001a0: f54b b53f 65b0 0b40 3448 d73f c211 1740
000001b0: 7507 af3f 6933 0a40 cee9 a73f cf02 1140
000001c0: a2d9 1240 8453 b53f 274c 1140 4bbe d33f
000001d0: c442 ab3f 97c3 b43f 3201 1140 fbed d33f
000001e0: 86f8 0e40 bd15 1140 0bd1 cd3f c880 1240
000001f0: 440f 1240 e001 1040 64dd 1140 b21d 1640
00000200: feba 0740 794f cf3f 16ad 1240 57ef 1240
00000210: d849 c63f aeb6 b23f 4b1f 0e40 224d 0940
00000220: d64a 1840 9460 1240 0cb2 d23f ffb5 f73f
00000230: 29e5 0d40 324b d03f 7ce6 1340 6eb2 bf3f
00000240: cc51 1640 b766 ab3f 44cb 1140 3071 1340
00000250: 52c8 1340 dfad fa3f 9c23 1340 7939 0abe
00000260: c8bc 1440 09b9 0940 afe9 cf3f 23d2 0f40
00000270: 6509 fd3f 9472 0e40 8a8f 1440 a26d 1140
00000280: d6d6 1140 7354 1440 fe24 0c40 8208 66bf
00000290: 19c1 1140 7d51 cb3f 3e50 c03f 4853 1040
000002a0: c606 0f40 4494 1240 c552 1040 b4d8 1240
000002b0: bb09 1540 9cb5 1540 d1ee 0f40 3172 a23f
000002c0: 0224 1040 fab7 a23f d9fe c93f bcc0 0b40
000002d0: cfb1 ad3f 9c77 6dbf 883e 1040 0a32 ac3f
000002e0: 53ce 1340 329c 1440 ef19 0e40 f8bb c33f
000002f0: be44 1140 8740 51be 2261 0e40 c3bc b53f
00000300: e268 0f40 033c 0c40 3360 d53f d7b7 1340
00000310: e340 cb3f f287 d73f 12d9 0ebf 7c99 1440
00000320: 964b 0c40 99bb b73f 259d 1040 25aa 0f40
00000330: c20d 0f40 5f75 1240 860d c93f c0a6 1140
00000340: 1911 1440 9aeb 1240 e9cc 1140 728e d13f
00000350: 3b41 bb3f ed58 1040 cf41 bb3f 125c 1340
00000360: 166a 1440 09af 1340 38f6 1140 4c6c 1440
00000370: 97e5 1340 4f2d 1640 af80 0d40 7497 b93f
00000380: 27ac 0f40 e385 1040 de46 0ebf ea17 d33f
00000390: e4ce cd3f 4c28 0e40 6e32 cd3f 585c 0c40
000003a0: 304f 0d40 ea9f cb3f dbbf 413f 58f4 b53f
000003b0: 18e3 bb3f 4450 0e40 6cc5 0e40 2fad 72bf
000003c0: 7f34 1040 b070 1040 5e41 0d40 00b0 1340
000003d0: bc6d 1640 f1cf 1040 867e 1540 0dd0 b23f
000003e0: 5793 1540 ff6e 1340 cb29 1340 8585 ae3f
000003f0: c644 1140 4122 1440 0301 1440 c9a6 1340

critic.2.weight f4 [1, 256]
-1.327489 -1.3373272 -1.3878154 -1.3328471 -1.252974 -1.2668622 -1.310116 -2.4837215
-1.3578517 -1.249271 -1.3945272 -1.2422968 -3.9681835 -1.4444683 -1.1944019 -1.567233
-1.1970123 -1.348373 -1.2486128 -3.1807795 -1.2261325 -1.3192974 -1.3376234 -1.4015695
-1.4652865 -1.3782564 -1.2273542 -1.4687687 -1.287957 -1.4736949 -2.7166615 -1.2950159
-1.9561225 -2.4295588 -1.7313834 -1.5904919 -1.6159924 -1.2341726 -1.2369975 -1.3749398
-1.36187 -1.4785137 -1.2737929 -1.2462484 -1.2614163 -1.1778473 -1.2991954 -1.3623611
3.9365244 -1.2971959 -1.4239516 -1.2850481 -1.8535175 -1.273275 -1.3929458 -1.9952937
-2.0227475 -1.1963995 -1.2490944 -1.9268706 -1.3459238 -1.284619 -1.242863 -1.4241395
-1.4015796 -1.8623991 -1.2542449 -1.3460808 -1.3463347 -1.2253189 -1.4863342 -1.2851497
-1.2504262 -1.3610055 -2.3395405 -1.3934084 -1.8848096 -1.3798614 -1.3171045 -2.0910745
-1.3376458 -1.267285 -1.9826022 -2.034021 -1.2660453 -1.3872076 -1.945723 -1.9488366
-1.1727849 -1.2987665 -2.001218 -1.9433216 -1.2335417 -1.2394763 -1.2733865 -1.3211269
-1.3652748 -1.6966573 -1.5309821 -1.2717712 -1.3200443 -1.3190839 -1.299221 -1.9757936
-1.2653916 -1.9225167 -2.0033898 -1.1745149 -1.4149586 -1.8635495 -1.4382064 -1.3585955
-1.2282703 -1.374579 -1.265098 -1.2345177 -1.3995899 -1.3383627 -1.3679534 -1.2338804
-1.3692604 -1.5325289 -1.2935816 -1.3133111 -1.4225537 -2.0082893 -1.3775184 -1.1777418
-1.8106446 -1.2864045 -1.9244866 -1.9161905 -1.3267325 -1.3809228 -1.5770047 -2.2915907
-1.2362524 -1.2574651 -1.2296437 -2.078439 -1.3808286 -1.3883601 -1.2932416 3.4404354
-1.1217276 -1.3918341 -1.2941797 -1.2938067 -1.1325698 -2.5005877 -1.247741 3.476566
-1.250054 -1.8495789 -1.2762702 -1.3138952 -2.256173 -1.9758427 -1.2581682 -1.2346166
-1.328509 -1.2470368 -1.4549922 3.2058837 -1.2512617 -1.2504256 -1.2795527 -1.2951529
-2.043539 -1.9101995 -1.3630204 -1.3241448 -1.1916729 -1.2975105 -1.4807277 -1.510923
-1.253091 -1.5196126 -1.3623334 -1.9284251 -1.3688042 4.0346665 -1.387283 -3.6071885
-1.9066021 -1.9551424 -1.2576174 -1.3064233 -1.360631 3.2258039 -1.3289956 -1.3639896
-1.4704872 -1.6074866 -1.2253903 -1.8860916 -1.2538735 -1.2710584 3.1587243 -1.2189378
-1.4991951 -1.3449697 -1.2177191 -1.9523352 -1.4073012 -1.3360858 -1.2814066 -1.9634608
-1.2269641 -1.3060365 -1.2588965 -1.2201067 -1.2972069 -1.8723818 -1.2005734 -1.9129686
-1.1870552 -1.1400734 -1.2664683 -1.2275118 -1.3285041 -1.9282202 -1.3143426 -1.2871811
-1.3084239 -1.3489034 3.143549 -1.2134486 -1.3480877 -1.9871331 -1.230865 -1.975166
-1.588492 -1.2772567 3.6131344 -1.3305387 -1.3344237 -1.7233338 -2.0155063 5.1225286
-1.965264 -1.2143406 -1.2762083 -1.7597188 -1.1896282 -1.3387278 -1.2728807 -1.3346132
-1.2850181 -1.9058223 -1.3177286 -3.9051557 -1.9755862 -1.2854153 -1.8146693 -1.2176089
00000000: 29eb a9bf 8a2d abbf efa3 b1bf bc9a aabf
00000010: 7461 a0bf 8a28 a2bf e2b1 a7bf 4bf5 1ec0
00000020: 16ce adbf 1de8 9fbf de7f b2bf 9503 9fbf
00000030: b8f6 7dc0 56e4 b8bf 29e2 98bf 179b c8bf
00000040: b337 99bf 7d97 acbf 8bd2 9fbf e491 4bc0
00000050: e9f1 9cbf bdde a8bf 3e37 abbf a166 b3bf
00000060: 828e bbbf b56a b0bf f119 9dbf 9d00 bcbf
00000070: c6db a4bf 09a2 bcbf c8dd 2dc0 15c3 a5bf
00000080: 3962 fabf e47d 1bc0 f99d ddbf 3d95 cbbf
00000090: d7d8 cebf 5ef9 9dbf ef55 9ebf 07fe afbf
000000a0: c251 aebf f03f bdbf a50b a3bf 1185 9fbf
000000b0: 1776 a1bf b3c3 96bf 094c a6bf d961 aebf
000000c0: 04f0 7b40 840a a6bf 0c44 b6bf 757c a4bf
000000d0: 1040 edbf adfa a2bf 0c4c b2bf c965 ffbf
000000e0: b274 01c0 9e23 99bf 53e2 9fbf b2a3 f6bf
000000f0: 3b47 acbf 656e a4bf 2316 9fbf 344a b6bf
00000100: f666 b3bf 1863 eebf 198b a0bf 604c acbf
00000110: b254 acbf 40d7 9cbf 3340 bebf c97f a4bf
00000120: f70d a0bf 6e35 aebf 08bb 15c0 355b b2bf
00000130: 7141 f1bf 4c9f b0bf e196 a8bf 2ad4 05c0
00000140: fa37 abbf 6536 a2bf e9c5 fdbf 662d 02c0
00000150: c60d a2bf 0590 b1bf 740d f9bf 7a73 f9bf
00000160: d11d 96bf fb3d a6bf f513 00c0 c3be f8bf
00000170: b2e4 9dbf 29a7 9ebf 54fe a2bf b01a a9bf
00000180: 53c1 aebf 112c d9bf 39f7 c3bf 66c9 a2bf
00000190: 36f7 a8bf bed7 a8bf e04c a6bf cee6 fcbf
000001a0: 5af8 a1bf 0715 f6bf 8a37 00c0 8156 96bf
000001b0: 5d1d b5bf ca88 eebf 2617 b8bf 75e6 adbf
000001c0: f637 9dbf 34f2 afbf bbee a1bf ad04 9ebf
000001d0: c325 b3bf 784f abbf 1919 afbf cbef 9dbf
000001e0: ed43 afbf e829 c4bf 1594 a5bf 941a a8bf
000001f0: 3d16 b6bf d087 00c0 8652 b0bf 3ec0 96bf
00000200: 34c3 e7bf e7a8 a4bf 9455 f6bf bb45 f5bf
00000210: 5fd2 a9bf 14c2 b0bf 4adb c9bf 6ca9 12c0
00000220: 853d 9ebf 9ef4 a0bf f764 9dbf 2505 05c0
00000230: febe b0bf c9b5 b1bf f188 a5bf 1830 5c40
00000240: c594 8fbf 9f27 b2bf aea7 a5bf 759b a5bf
00000250: 0cf8 90bf a109 20c0 fab5 9fbf 0f80 5e40
00000260: c501 a0bf 00bf ecbf d25c a3bf b82d a8bf
00000270: 2365 10c0 6ae8 fcbf a80b a1bf eb07 9ebf
00000280: 950c aabf e79e 9fbf 2f3d babf 332d 4d40
00000290: 5829 a0bf f20d a0bf 62c8 a3bf 92c7 a5bf
000002a0: 58c9 02c0 6b81 f4bf 7477 aebf 947d a9bf
000002b0: bd88 98bf d314 a6bf 7c88 bdbf ed65 c1bf
000002c0: 4965 a0bf aa82 c2bf f160 aebf a2d6 f6bf
000002d0: fa34 afbf fd1b 8140 7d92 b1bf 2ddc 66c0
000002e0: 8a0b f4bf 1b42 fabf 9bf9 a0bf e138 a7bf
000002f0: 2829 aebf 9273 4e40 871c aabf 3697 aebf
00000300: ed38 bcbf 1fc2 cdbf 97d9 9cbf 736b f1bf
00000310: ed7e a0bf 0bb2 a2bf 8a28 4a40 2706 9cbf
00000320: a0e5 bfbf f827 acbf 38de 9bbf 1fe6 f9bf
00000330: 7222 b4bf dc04 abbf 2205 a4bf af52 fbbf
00000340: 290d 9dbf 342c a7bf 8523 a1bf 752c 9cbf
00000350: e00a a6bf 35aa efbf 64ac 99bf 28dc f4bf
00000360: 6df1 97bf eded 91bf a21b a2bf 1b1f 9dbf
00000370: 6c0c aabf ebcf f6bf 613c a8bf 5ac2 a4bf
00000380: 6f7a a7bf dea8 acbf e82f 4940 4952 9bbf
00000390: 238e acbf 615a febf fc8c 9dbf 3dd2 fcbf
000003a0: b553 cbbf 267d a3bf 983d 6740 184f aabf
000003b0: 65ce aabf 3496 dcbf 0efe 00c0 c1eb a340
000003c0: c58d fbbf 836f 9bbf cb5a a3bf 773e e1bf
000003d0: bd45 98bf 6f5b abbf c1ed a2bf 9bd4 aabf
000003e0: 797b a4bf fcf1 f3bf 55ab a8bf 12ee 79c0
000003f0: 02e0 fcbf 7d88 a4bf 1547 e8bf 9cda 9bbf

actor.0.weight f4 [256, 3]
0.00040428402 0.0013128095 -0.0016947439 0.6143549 -0.03737739 0.021742096 -0.021698203 0.005853387
0.017798394 -0.0153777385 0.016360534 0.019111285 -0.014373555 -0.009811361 0.026255684 -0.2687688
-0.105380766 -0.1144738 0.24723594 -0.25093973 0.141971 0.41924143 0.40426582 0.0226779
-0.013267093 0.0035919554 -0.0011284999 0.5696371 -0.3281491 0.057576947 -0.014338495 0.028191295
0.006823247 -0.017827218 -0.0037566277 0.026750805 0.012493332 0.0018980484 -0.0038748053 0.25000396
-0.37420952 0.05215983 -0.0056238314 0.014515328 0.0028791737 0.46643302 -0.2329047 0.17013396
-0.09658746 0.23701753 -0.092691384 0.003330724 0.006834217 -0.0009387232 -0.02955049 -0.005458526
0.028992662 -0.0012854328 -0.0026988224 -0.0035355745 0.21412031 -0.087097295 0.045521237 0.010932401
0.006520765 -0.008437418 -0.009138238 0.022106592 0.0060629514 0.20363432 -0.36265346 -0.15407562
0.027460137 -0.055924483 0.00422183 -0.0116969105 0.0020376225 0.008779144 -0.012270112 0.0059611876
0.005959102 -0.019167973 -0.0054311072 0.021353193 -0.09175637 0.2767617 -0.035071272 -0.024869464
-0.008962253 0.027748846 0.0050076353 -0.0024793607 -0.00058906054 -0.020670794 -0.010203142 0.030163314
0.19289906 -0.07441601 0.03628864 -0.18916486 0.3745663 0.08048395 -0.13534905 0.21251823
-0.07018744 0.005638506 0.009261081 -0.0012971913 -0.040599525 0.009678603 0.03342515 -0.0012861814
0.0020231002 0.0062094163 0.022090882 -0.012543519 0.003994305 0.23233536 -0.29828602 0.14390115
-0.0838681 0.011831253 -0.115902886 -0.025569607 -0.023742467 0.026256528 -0.018407945 -0.005891741
0.0059497706 -0.026746877 0.011393511 0.019012008 -0.0009215148 0.27488217 0.07155029 -0.20755447
-0.10367911 -0.19140123 -0.012428805 -0.022163995 0.0059703263 0.0129787875 0.0022385952 -0.0033821112
0.22181533 -0.11184738 0.02949697 -0.029163914 -0.0062836763 0.044617817 -0.03390407 -0.014832725
0.03443574 0.4222505 -0.22409344 0.07894992 0.07669312 -0.3398474 -0.120730475 0.015808625
0.010507649 0.0001356665 -0.19265647 -0.42095235 -0.1460794 -0.13991654 0.119968034 -0.06978175
-0.0037900528 -0.0025889247 0.0005284944 0.0022836549 0.0016877735 -0.0035823656 -0.07892514 0.20084408
0.05855083 0.02356318 0.14135963 0.059018593 -0.24437477 -0.46663293 -0.17458582 -0.030659294
-0.0027696698 0.030391643 -0.030491412 -0.0012660655 0.025609914 0.31396157 0.2671658 0.020115817
0.5858227 0.012409949 0.00986083 -0.07138428 0.18906932 -0.038584292 -0.017961137 0.2375093
0.07605122 0.10993195 0.33669636 -0.066505425 0.10991878 -0.054275654 0.033120822 0.021309638
0.03219393 0.020803658 0.017217284 0.004272877 0.000762751 -0.05619179 -0.0088959765 0.03475601
-0.21871135 -0.40867475 0.07872956 0.3612245 -0.1908087 0.039032795 0.14043508 -0.39646313
-0.16384931 0.09386918 0.2536687 0.06412932 0.0039559053 0.018564235 0.008079635 0.06827789
-0.35582328 -0.17953597 0.0092748 0.0060971123 -0.012217232 -0.05736853 0.26007375 -0.03558113
-0.012037485 0.0031282583 0.009952031 0.0024473148 -0.014953649 0.0013700504 0.0216788 0.05671668
0.029831583 0.44126686 -0.11938849 0.025648097 0.008145735 -0.003311105 0.00030942805 0.41794994
00000000: 15f6 d339 9412 ac3a 2b22 deba 5d46 1d3f
00000010: 0919 19bd 7b1c b23c 6ec0 b1bc c5cd bf3b
00000020: f0cd 913c e9f2 7bbc 8706 863c 458f 9c3c
00000030: 0f7f 6bbc d5bf 20bc 2916 d73c 109c 89be
00000040: dfd1 d7bd 3d71 eabd 6b2b 7d3e 2c7b 80be
00000050: d960 113e d0a6 d63e eefb ce3e 01c7 b93c
00000060: 395e 59bc 0367 6b3b 2cea 93ba bdd3 113f
00000070: 2903 a8be ced5 6b3d 02ec 6abc 6ef1 e63c
00000080: 8b95 df3b 630a 92bc c131 76bb 8124 db3c
00000090: d5b0 4c3c f0c7 f83a 72f0 7dbb 8500 803e
000000a0: 6498 bfbe 8ca5 553d 1e48 b8bb b3d1 6d3c
000000b0: 85b0 3c3b 4fd0 ee3e 927e 6ebe 9937 2e3e
000000c0: a5cf c5bd b9b4 723e fbd4 bdbd 4748 5a3b
000000d0: 91f1 df3b a614 76ba df13 f2bc 6fdd b2bb
000000e0: 0582 ed3c f87b a8ba bade 30bb 19b5 67bb
000000f0: 5b42 5b3e 1160 b2bd 7a74 3a3d d01d 333c
00000100: 24ac d53b 193d 0abc 8cb8 15bc e218 b53c
00000110: b9ab c63b 8485 503e b7ad b9be 00c6 1dbe
00000120: 15f4 e03c 1211 65bd 4757 8a3b 66a4 3fbc
00000130: a289 053b 66d6 0f3c 9408 49bc 1156 c33b
00000140: 9244 c33b 2706 9dbc 6ef7 b1bb e4ec ae3c
00000150: c4ea bbbd b6b3 8d3e e5a6 0fbd 0cbb cbbc
00000160: 6ad6 12bc 8c51 e33c 1717 a43b c57c 22bb
00000170: 2f6b 1aba cc55 a9bc 142b 27bc 0e19 f73c
00000180: 5587 453e 6c67 98bd 66a3 143d 6fb4 41be
00000190: 27c7 bf3e c5d4 a43d f198 0abe 619e 593e
000001a0: 6fbe 8fbd 37c3 b83b cabb 173c 8406 aaba
000001b0: b04b 26bd 0193 1e3c cfe8 083d 1695 a8ba
000001c0: fd95 043b 5c78 cb3b f0f7 b43c 5583 4dbc
000001d0: a9e2 823b 52e9 6d3e f2b8 98be d35a 133e
000001e0: 0ac3 abbd dfd7 413c 7e5e edbd 5a77 d1bc
000001f0: 907f c2bc ee17 d73c 42cc 96bc 810f c1bb
00000200: 4bf6 c23b 441c dbbc d9ab 3a3c 12bf 9b3c
00000210: d091 71ba 5bbd 8c3e f588 923d 2989 54be
00000220: b755 d4bd affe 43be 30a2 4bbc 4491 b5bc
00000230: baa2 c33b fba4 543c 65b5 123b 69a6 5dbb
00000240: 8f23 633e 3d10 e5bd a1a3 f13c 29e9 eebc
00000250: 4ce7 cdbb 2cc1 363d fede 0abd f504 73bc
00000260: 7e0c 0d3d 3831 d83e c078 65be 7fb0 a13d
00000270: 4811 9d3d 7a00 aebe 8a41 f7bd 1781 813c
00000280: 4628 2c3c b341 0e39 bd47 45be 1187 d7be
00000290: d795 15be 4846 0fbe cdb1 f53d bce9 8ebd
000002a0: 8962 78bb f3aa 29bb a98a 0a3a 5fa9 153b
000002b0: 4838 dd3a 1fc6 6abb 81a3 a1bd 12aa 4d3e
000002c0: ffd2 6f3d 9207 c13c 94c0 103e 7bbd 713d
000002d0: 613d 7abe 83ea eebe a0c6 32be 3329 fbbc
000002e0: 5983 35bb e5f7 f83c 20c9 f9bc 1cf2 a5ba
000002f0: e2cb d13c 92bf a03e f5c9 883e edc9 a43c
00000300: 7af8 153f 1953 4b3c 528f 213c ec31 92bd
00000310: 639b 413e 900a 1ebd 3c23 93bc a335 733e
00000320: bec0 9b3d 0124 e13d 7763 ac3e ff33 88bd
00000330: 191d e13d 2650 5ebd b3a9 073d 8d91 ae3c
00000340: c8dd 033d 6f6c aa3c 430b 8d3c 7d03 8c3b
00000350: 5af3 473a 5d29 66bd 6ec0 11bc 515c 0e3d
00000360: def5 5fbe d13d d1be f73c a13d 6bf2 b83e
00000370: 5b63 43be dae0 1f3d 37ce 0f3e 37fd cabe
00000380: 1dc8 27be 7c3e c03d dde0 813e 3c56 833d
00000390: 8aa0 813b 0614 983c 7260 043c 47d5 8b3d
000003a0: 782e b6be 47d8 37be 55f5 173c 49ca c73b
000003b0: c92a 48bc 44fb 6abd 6328 853e 85bd 11bd
000003c0: df38 45bc 7703 4d3b d80d 233c 2163 203b
000003d0: 2600 75bc 4393 b33a bd97 b13c c04f 683d
000003e0: 5d61 f43c bbed e13e f481 f4bd f51b d23c
000003f0: b075 053c 20ff 58bb bb3a a239 89fd d53e

actor.0.bias f4 [256]
-0.05533547 0.13531367 0.11366957 0.08035283 0.1511383 0.21617742 0.09499448 0.3138445
-0.029684188 0.062066328 -0.023503074 0.16115807 -0.038923804 -0.009532594 0.0032132193 -0.06759382
0.3246218 -0.026815576 0.19667111 -0.0473601 0.05125284 -0.07073262 0.018764898 0.07775373
-0.051057193 0.058011204 0.033954386 0.13728431 0.28193775 0.18280658 -0.038599722 0.19968142
0.015104275 0.1644879 0.27543753 -0.019835938 0.20817532 0.03606714 -0.011978801 0.10708385
0.2368193 0.17393848 0.026917718 0.10727296 0.2290441 0.1567507 -0.007103174 -0.040034316
-0.10045913 0.22458915 0.22519381 0.0021378612 0.016687403 -0.059064496 0.027575009 0.19283703
-0.03941103 -0.03573251 0.22400934 0.22597688 0.008475323 0.122774675 0.15968029 0.28635246
0.08437558 0.2356572 0.21142475 0.3148586 0.062180433 0.08158022 -0.024461575 0.1851487
-0.12679607 0.062203087 0.048417535 0.16279979 -0.03683661 0.022338359 -0.10270079 0.27335364
0.05101521 -0.062724546 0.25284925 -0.09075918 -0.048922688 -0.025054302 0.23354296 -0.084424585
0.19901174 -0.09663766 -0.0075713517 -0.050326876 0.16047175 -0.115124166 -0.04999098 0.039765224
-0.05512058 -0.023967404 0.17717053 0.04796442 0.07873686 0.05931333 -0.022891104 0.012243756
0.033289086 -0.06204479 0.15526353 0.21072051 0.1449005 0.07271503 -0.0110278865 -0.009571191
-0.05960851 0.010432219 0.14309692 -0.018718362 0.20942108 0.22014454 -0.03161798 -0.06445814
0.14212716 0.0493429 0.20959464 -0.084663756 0.11959191 -0.03856173 0.022784032 -0.0770568
0.13408378 0.30730334 0.17100403 0.061081655 -0.02136633 0.027627477 0.14833899 0.0049804156
0.047130212 0.061442297 0.19802897 0.17020987 0.16792922 -0.010887221 0.1822888 -0.063045464
-0.099685945 -0.043439697 -0.041052915 -0.025846336 0.1583359 -0.16083863 0.018590227 -0.055058792
0.09154129 0.083978206 0.061873034 -0.060132608 0.08901035 0.30908465 0.21181014 0.2214929
-0.035680607 0.0024729378 -0.06452867 -0.036062494 0.105539 0.1828913 0.08008532 0.14635752
0.022859002 0.1368136 0.047650747 -0.030766496 0.08657228 -0.040248085 0.16355714 0.07173488
-0.04611192 -0.06693942 -0.007171333 0.1500212 0.090681866 -0.01764034 0.07890364 -0.020241713
-0.1327904 -0.043247357 0.25204295 0.06436764 -0.028115314 -0.08599717 -0.031041171 -0.056159295
0.068060964 0.18171342 0.0018644527 0.0028589752 0.07770183 0.28702953 0.24958605 -0.05228326
0.06493976 0.2418546 -0.13067769 -0.121072575 0.18051876 0.022890946 -0.02269078 -0.057123993
0.17278895 -0.07246484 -0.044622958 0.1572894 0.10297205 0.040147714 -0.0070533636 0.104809485
0.16103934 -0.028197316 -0.04790809 0.13725439 0.024465317 0.065452635 -0.056099784 -0.04739605
0.147487 0.1456389 0.11239795 0.18306643 -0.0405144 -0.00959423 -0.052408054 -0.039704394
-0.067450434 -0.021198275 0.05068213 -0.03433782 0.042621754 0.124106936 -0.02365697 0.16776387
-0.020798987 -0.042444244 0.06108961 0.10041744 0.15429612 0.2228777 -0.09757271 -0.01532073
0.18568699 -0.06901839 0.1610792 -0.038491555 0.19340603 0.20977789 0.29971248 0.020845722
00000000: 72a7 62bd ab8f 0a3e 97cb e83d 0690 a43d
00000010: 00c4 1a3e 9d5d 5d3e 778c c23d 3ab0 a03e
00000020: 412c f3bc 4339 7e3d 8589 c0bc 9f06 253e
00000030: 916e 1fbd 992e 1cbc e094 523b a16e 8abd
00000040: d434 a63e 57ac dbbc 2764 493e aafc 41bd
00000050: 7fee 513d 44dc 90bd d8b8 993c 593d 9f3d
00000060: 5921 51bd 289d 6d3d c113 0b3d 4294 0c3e
00000070: 255a 903e a631 3b3e be1a 1ebd 4979 4c3e
00000080: ec77 773c 846f 283e 2606 8d3e fa7e a2bc
00000090: e92b 553e 23bb 133d bc42 44bc c74e db3d
000000a0: c280 723e ee1c 323e 8c82 dc3c edb1 db3d
000000b0: 898a 6a3e 4183 203e bec1 e8bb 06fb 23bd
000000c0: 84bd cdbd b3fa 653e 3599 663e 5c1b 0c3b
000000d0: 05b4 883c 9ded 71bd fce4 e13c 1277 453e
000000e0: 766d 21bd 415c 12bd b462 653e 7c66 673e
000000f0: 15dc 0a3c 4a71 fb3d 3b83 233e ca9c 923e
00000100: 1bcd ac3d 1f50 713e bb7f 583e 2535 a13e
00000110: e9b0 7e3d 8813 a73d a463 c8bc 9f97 3d3e
00000120: d4d6 01be aac8 7e3d 7751 463d fdb4 263e
00000130: fce1 16bd effe b63c cb54 d2bd 02f5 8b3e
00000140: 53f5 503d ba75 80bd 7575 813e f3df b9bd
00000150: 2863 48bd ae3e cdbc e325 6f3e cce6 acbd
00000160: bcc9 4b3e f7e9 c5bd 1a19 f8bb 8e23 4ebd
00000170: b552 243e 38c6 ebbd 58c3 4cbd dce0 223d
00000180: 1ec6 61bd 4a57 c4bc 316c 353e 5776 443d
00000190: ca40 a13d 89f2 723d 2086 bbbc 099a 483c
000001a0: 235a 083d ad22 7ebd 67fd 1e3e 1ec7 573e
000001b0: cc60 143e 9eeb 943d 4fae 34bc 7cd0 1cbc
000001c0: 0e28 74bd e6eb 2a3c 0088 123e 4057 99bc
000001d0: 7b72 563e 926d 613e db81 01bd a102 84bd
000001e0: c889 113e c81b 4a3d fa9f 563e 3164 adbd
000001f0: 9aec f43d e8f2 1dbd 94a5 ba3c f5cf 9dbd
00000200: 424d 093e dd56 9d3e ae1b 2f3e c230 7a3d
00000210: 7108 afbc 0553 e23c 2de6 173e c132 a33b
00000220: 9c0b 413d ebaa 7b3d 1bc8 4a3e 7f4b 2e3e
00000230: a3f5 2b3e 5160 32bc eaa9 3a3e fb1d 81bd
00000240: 2528 ccbd d3ed 31bd 1a27 28bd b2bb d3bc
00000250: ce22 223e e2b2 24be 884a 983c 5485 61bd
00000260: 007a bb3d c4fc ab3d 946e 7d3d 9c4d 76bd
00000270: 0f4b b63d 5840 9e3e c2e4 583e 09cf 623e
00000280: d425 12bd 0311 223b 9b27 84bd 44b6 13bd
00000290: d524 d83d db47 3b3e c603 a43d bfde 153e
000002a0: cd42 bb3c dd18 0c3e 6e2d 433d 050a fcbc
000002b0: cf4c b13d 2ddb 24bd 867b 273e bde9 923d
000002c0: dadf 3cbd 8917 89bd 80fd eabb 289f 193e
000002d0: 6ab7 b93d 7982 90bc 3b98 a13d f3d1 a5bc
000002e0: 35fa 07be 2424 31bd c60b 813e 2ed3 833d
000002f0: 1652 e6bc 491f b0bd 0e4a febc 4a07 66bd
00000300: 8c63 8b3d 1513 3a3e a760 f43a a55d 3b3b
00000310: 2322 9f3d 89f5 923e 7c93 7f3e f926 56bd
00000320: 23ff 843d bba8 773e 5fd0 05be e6f4 f7bd
00000330: e9d9 383e cb85 bb3c 04e2 b9bc d9fa 69bd
00000340: 96ef 303e 7268 94bd 90c6 36bd 7910 213e
00000350: 03e3 d23d ee71 243d e71f e7bb 5ba6 d63d
00000360: 7fe7 243e 0ffe e6bc 463b 44bd 6a8c 0c3e
00000370: 7d6b c83c 080c 863d e3c8 65bd 5c22 42bd
00000380: d506 173e 5d22 153e e530 e63d c475 3b3e
00000390: 6df2 25bd 1e31 1dbc d4a9 56bd 13a1 22bd
000003a0: 7423 8abd 01a8 adbc 1198 4f3d d0a5 0cbd
000003b0: 2694 2e3d c72b fe3d 43cc c1bc 4bca 2b3e
000003c0: a362 aabc 04da 2dbd 1939 7a3d a9a7 cd3d
000003d0: cdff 1d3e 0d3a 643e 33d4 c7bd cd03 7bbc
000003e0: bb24 3e3e 8359 8dbd f2f1 243e 52a9 1dbd
000003f0: 3b0c 463e 04d0 563e ea73 993e a6c4 aa3c

actor.2.weight f4 [1, 256]
0.0006005962 -0.079358906 0.0016517269 -0.0076650847 -0.0010632303 -0.12783404 0.09671039 -0.13077393
0.00062626594 0.02283167 -0.0004917301 0.0029453356 -0.00047224062 -0.0017924701 -0.0009817197 0.14215581
-0.13169815 -0.00092239934 0.0015775147 -0.0005479157 0.019974485 -0.00046551906 -0.0043270057 -0.13369437
0.006071457 -0.00030870832 -0.00027498967 0.00066132186 -0.05868153 0.0006757491 0.0045129545 0.0010953757
0.018506676 -0.06559705 -0.08503706 -0.00022854624 -0.0016458943 0.000108669505 0.005602022 0.092023216
-0.09871909 0.002435569 0.0004277921 -0.0016683311 -0.006398641 -0.17098562 -0.0036917182 -6.1485276e-05
0.028092308 0.0050037983 0.0020955813 0.026174115 -0.09472072 -0.0018563941 -0.10996847 -0.07459374
-0.005656029 -0.00037136534 0.0022002044 -0.0042029307 -0.14383473 0.008072229 -0.0046610893 -0.08284534
-0.063227855 -0.0574303 0.027208557 -0.12485015 0.0061589587 0.0024872015 -0.0029466236 -0.0011240205
0.07580708 0.044492304 -0.14613736 0.0034422157 0.008825622 -0.18637577 -0.00037399057 -0.060523577
0.001032232 -0.0034815317 -0.0123943705 -0.0026350154 -0.0036201181 -0.015698656 -0.035244416 -0.0004988626
-0.041418467 -0.007605269 0.0011255363 0.010824468 0.00040269506 0.0045950785 -0.0044268277 0.00044760513
-0.004276462 0.00053609436 0.0013722321 -0.01267613 -0.17085189 -0.0037476558 0.0035349845 0.0004330727
-0.0019746718 -0.0027293598 -0.0010019635 -0.17735735 0.0014366144 0.222453 0.00017179229 -0.0018379589
0.0118341 -0.016676228 -0.0001459226 -0.00321023 0.00050674815 0.0016223522 0.00081047317 0.0026012226
-0.00091708614 0.0025917112 -0.0121713225 2.2082051e-05 -0.13129523 -0.00042348227 -0.003709253 -0.004464637
-0.03676553 -0.20704232 0.0011277698 0.00019171502 -0.00019434743 0.10966398 0.00044760466 0.00031314473
-0.007826926 0.011870785 0.001645198 -0.05336079 0.03702552 0.0027470666 -0.0061940807 -0.00025003403
-0.0033187978 0.00050956436 0.0022309998 0.0018628385 0.0027840359 0.0959953 0.15385918 0.14879525
-0.0064621326 -0.00013408292 0.00078497146 -0.00018728373 -0.01922108 -0.21684404 0.0016698843 -0.0015659544
0.0023296627 0.0071651875 -0.0042912657 -0.0006484284 -0.009017865 -0.0010705027 -0.0036109388 -0.00023681267
0.003440816 0.002926912 -0.0720097 0.008433117 0.000615157 0.00014940859 -0.21570212 0.0016488956
0.004310286 0.0039461646 -0.020123618 -0.06713934 0.0007631186 0.00037430323 0.0035263253 -9.875437e-05
-0.0038056914 -0.035363093 -0.101448946 0.00410587 0.00026821537 0.008742046 0.0016272364 0.00045487023
5.995594e-05 -0.07894573 -0.005979199 0.0011616725 -0.28320542 -0.08711504 -0.028293815 0.0024081059
0.00065387215 -0.0030206789 -0.00016649983 0.0018988943 0.0022291937 0.0003227146 6.254466e-05 0.0019476578
0.00011265847 -0.00026511337 0.23621644 -0.00023097273 0.084147446 0.0026631453 0.0002348725 0.044585038
0.0013750244 0.00010897571 0.0012539533 0.0021973287 0.00028739558 0.0019956713 0.002143666 0.002492788
-0.00038982325 -0.0017545067 -0.00030241994 0.0038470502 -0.004272294 0.10037518 -0.0050797123 0.0024415306
0.0031015412 8.829633e-05 0.0055587776 0.0003351843 0.018281145 -0.104137965 0.012242528 0.00094362424
-0.00025943608 -0.00015134606 -0.0010768519 0.13364832 -0.0071512056 -0.031162236 -0.0088535985 0.0032660703
-0.0034558713 0.004628337 -0.17842667 -0.0001856931 -0.1606146 0.0018185772 -0.13253266 0.01386436
00000000: 5471 1d3a ec86 a2bd c27e d83a 642b fbbb
00000010: 175c 8bba ede6 02be 1910 c63d 9ae9 05be
00000020: ff2b 243a 7b09 bb3c 73e7 00ba 8806 413b
00000030: 1097 f7b9 51f1 eaba 0cad 80ba 4b91 113e
00000040: e1db 06be 2ccd 71ba 9cc4 ce3a 00a2 0fba
00000050: 88a1 a33c e910 f4b9 8ec9 8dbb 2de7 08be
00000060: 13f3 c63b 21da a1b9 7d2c 90b9 8f5c 2d3a
00000070: 0b5c 70bd c124 313a 68e1 933b b692 8f3a
00000080: 509b 973c bf57 86bd e927 aebd eaa5 6fb9
00000090: 0cbb d7ba 7fe5 e338 2b91 b73b ab76 bc3d
000000a0: 3c2d cabd 119e 1f3b 4949 e039 e7ab daba
000000b0: b1ab d1bb db16 2fbe c1f0 71bb a8f1 80b8
000000c0: d721 e63c e7f6 a33b 0556 093b 196b d63c
000000d0: f0fc c1bd 4052 f3ba 2637 e1bd 9ac4 98bd
000000e0: 3656 b9bb d0b3 c2b9 4e31 103b bdb8 89bb
000000f0: 6949 13be 6241 043c 0dbc 98bb d1aa a9bd
00000100: 9b7d 81bd 093c 6bbd 7be4 de3c 6fb1 ffbd
00000110: 17d1 c93b 5100 233b 241c 41bb df53 93ba
00000120: be40 9b3d 903d 363d 08a5 15be cc96 613b
00000130: 5799 103c 4ad9 3ebe 2a14 c4b9 92e7 77bd
00000140: f54b 873a 692a 64bb c211 4bbc 39b0 2cbb
00000150: 813f 6dbb 789a 80bc 735c 10bd 1ac6 02ba
00000160: 69a6 29bd 9f35 f9bb bb86 933a 1c59 313c
00000170: d120 d339 5092 963b ec0e 91bb 8bac ea39
00000180: 9021 8cbb af88 0c3a 78dc b33a 8baf 4fbc
00000190: ccf3 2ebe 3b9b 75bb 33ab 673b 090e e339
000001a0: 7f69 01bb 0fdf 32bb 5154 83ba 2a9d 35be
000001b0: c84c bc3a b8ca 633e 2423 3439 abe7 f0ba
000001c0: d0e3 413c 969c 88bc cd02 19b9 b962 52bb
000001d0: 4bd7 043a 1ba5 d43a ef75 543a 4679 2a3b
000001e0: 9c68 70ba b3d9 293b 3a6a 47bc d83c b937
000001f0: 4272 06be d406 deb9 f016 73bb 174c 92bb
00000200: 7497 16bd e702 54be add1 933a 1c07 4939
00000210: bec9 4bb9 8297 e03d 7bac ea39 932d a439
00000220: 823c 00bc ae7d 423c afa3 d73a d890 5abd
00000230: 12a8 173d 2108 343b b7f7 cabb 0017 83b9
00000240: 3080 59bb 4994 053a f735 123b 7d2a f43a
00000250: 5f74 363b 2f99 c43d 438d 1d3e c85d 183e
00000260: 4cc0 d3bb 9c98 0cb9 8bc6 4d3a 9861 44b9
00000270: 8775 9dbc 5d0c 5ebe 05e0 da3a b640 cdba
00000280: 41ad 183b f3c9 ea3b bf9d 8cbb 4bfb 29ba
00000290: abbf 13bc 1c50 8cba 80a5 6cbb eb50 78b9
000002a0: 507f 613b 6fd1 3f3b d279 93bd 0e2b 0a3c
000002b0: 7d42 213a 90aa 1c39 04e1 5cbe c11f d83a
000002c0: 4d3d 8d3b d44e 813b 49da a4bc 5a80 89bd
000002d0: 060c 483a 213e c439 ec19 673b 591a cfb8
000002e0: e868 79bb e4d8 10bd 77c4 cfbd 898a 863b
000002f0: 429f 8c39 cc3a 0f3c fe48 d53a a67b ee39
00000300: 3379 7b38 4dae a1bd 28ed c3bb 4343 983a
00000310: 4d00 91be 5f69 b2bd 6ec8 e7bc 50d1 1d3b
00000320: 9e68 2b3a 95f6 45bb 7596 2eb9 52e4 f83a
00000330: aa17 123b 0532 a939 692a 8338 8d48 ff3a
00000340: 0e43 ec38 eafe 8ab9 b9e2 713e 4531 72b9
00000350: 7f55 ac3d 2a88 2e3b 1b48 7639 cd9e 363d
00000360: 2a3a b43a e489 e438 b15b a43a 0f01 103b
00000370: 95ad 9639 cfc9 023b bf7c 0c3b 0b5e 233b
00000380: 3161 ccb9 7af7 e5ba 1e8e 9eb9 cb1e 7c3b
00000390: 9afe 8bbb 8191 cd3d b773 a6bb 1602 203b
000003a0: 3a43 4b3b bb2b b938 6826 b63b adbb af39
000003b0: 57c2 953c 4946 d5bd e294 483c 8d5d 773a
000003c0: ec04 88b9 a6b2 1eb9 2725 8dba 1bdb 083e
000003d0: a954 eabb f247 ffbc af0e 11bc 910b 563b
000003e0: e67b 62bb 4ea9 973b 7bb5 36be 9db6 42b9
000003f0: 2778 24be 535d ee3a a4b6 07be 5727 633c
