weight/90000.pt (torch_old, 11869 bytes, 6 tensors)

critic.0.weight f4 [256, 3]
00000000: cc38 22be 3503 cd3d 86b9 79be 1426 773e
00000010: ce92 06be 85d4 3bbe cd58 5abf fe1f 06c0
00000020: 377a bebe 1cda 973d 27a9 b93e c94e 503d
00000030: bab2 2c3d 9fdd 8f3d c682 f73c 193d 483d
00000040: fbdb 1d3f 4dd5 183d adcc cfbf 83f5 3e3f
00000050: 421e c43e 0329 39bd cab2 903e 54ad c33d
00000060: 988a 51be c09f 87bd 7f0d 88be 8f56 71bd
00000070: 2de7 a23e b5ce 983d 6950 c8bf facd 303f
00000080: ea49 be3e ff30 d6bf 1ff8 05be ec14 c7bf
00000090: ff9f df3f b314 083f c9ee f2bc 7098 6ebf
000000a0: fbda 513f 472f 873e 3d68 7abf 04af 753f
000000b0: 379e 923e 3ff2 9bbf 58c5 363f 8a2f 9c3e
000000c0: 5d6f 613e a756 063e e41f 42be 90e1 53bf
000000d0: 337f 06c0 5a16 bdbe 812b 5ebf ceaa 403f
000000e0: 4005 89be 6fdd 2f3d bf31 863e 0cd2 843d
000000f0: b4b1 08bc 6a6d c73d 6983 66be 9d4d b83e
00000100: 86a2 64bd c4b4 37be 1e84 ed3d b396 30bd
00000110: 38ab 6ab9 d6eb 2fbf f166 a3bf aa8e 9abe
00000120: 1959 91bd c55b e53e f91b 833d e74d 21bd
00000130: 62ba 1abd 7dcd 243d 432c 22be a495 eb3e
00000140: 9258 9e3d b94c 1fbe 2861 de3e 1b72 9f3d
00000150: f969 b5bf ee8d 803f b5ad b7be 0101 8cbe
00000160: e9ee 593d fcd4 8cbe a360 61bf 14e8 e8bf
00000170: 58b4 b5be ba22 d7bf 4c5a aabd 7cb7 c8bf
00000180: 5efd a0be 3bbc 00bf b845 7abe 9cce 05be
00000190: 8b61 103e c8c5 d13d 47af acbd 6344 753e
000001a0: 5419 a73d ddcc c83d c891 063e ae93 763c
000001b0: f7e7 1dbc 4d3b a13d 36dd 323d d7f6 2abf
000001c0: c27f 0c3f 183a b03d 676e 8dbf 0b16 a4bf
000001d0: b81d efbe 7db5 43bf 27e5 483f 9d48 84be
000001e0: 4d45 dcbc 8d06 1a3f 8f38 9039 c850 c7bf
000001f0: e36c 8a3f b287 c3be 9a75 813e 3f9f b6bd
00000200: 68b4 47be 3d2a 81bc 731a bdbe 4973 66be
00000210: 4656 03be 5a7b c73e b8aa ad3d 5284 24be
00000220: f97d d13e a9ed 8c3d 9940 9e3d 130f bb3c
00000230: 1589 2f3c 48e6 39bc 3740 a33e 7afe 983d
00000240: 93cc 81bd 7bf9 a93e 6fbd af3d 7cb0 0bc0
00000250: 0bce b23d 9e62 e23e 8c48 04be afe0 cf3e
00000260: b1a4 ab3d 6892 b4bd befa 813e bb7c b43d
00000270: b19b acbf dc44 6d3f 47a0 b33e 29a9 913e
00000280: 9f01 9e3b 49a7 3dbe acf5 a33e 496d 2ebe
00000290: b019 2cbe f2f0 26be a27b 073f 4b7e 693d
000002a0: abb7 8dba 939f 3cbb febc b63c 4b6e 663e
000002b0: 7770 123e f8d0 49bd db53 a83e 0ec3 363e
000002c0: 5f3a 94bd 7e9f a5bf 86b8 d1be fe64 d7be
000002d0: fd5a 58bc 32a2 983e 3242 c03d c8bd 89bf
000002e0: 8e35 a3bf 2204 eabe 4d46 06bd b9f0 c03e
000002f0: bbac 953d 66e8 97bf 4596 81bf cc4d eabe
00000300: e6de d2bf 817b 8ebd 3ef6 c8bf fc0a 213e
00000310: 5457 143e 7528 a73b 785f ffbd 3292 85bf
00000320: 5ac6 4fbe 9b5b 043f b88d 3bbc 3019 f8bd
00000330: c0e2 27be d980 e8be 3647 6abe 968a 0e3e
00000340: 7ada 793d c4e8 2a3b 7495 dc3b da1a 8dbe
00000350: 4eb8 6fbe 1df3 53bf 9335 c4bf d748 aebe
00000360: 0dcc c4bc d73d f3be 5440 5bbe 2bdb 60bd
00000370: 4ff8 193e acd7 62be 7442 71bd c576 ce3e
00000380: 36cd a33d f6c8 58be a9fd 7cbd 99f2 86be
00000390: 2349 9abd eecb e83e 6c11 863d 8be4 4d3c
000003a0: f745 f03e 5edc 913d 156c cfbf b4e0 953f
000003b0: b938 c9be dbba b9be 1387 303e c45f 80be
000003c0: 74f7 c8bf ac4c 5c3f 9674 ccbe 577d 71be
000003d0: 65d9 823e 7756 cc3d b19d 42bf d5b5 f0bf
000003e0: 4052 aebe 7bf4 793e 5581 013e 6110 29be
000003f0: a954 e8bd 3225 f6be 51ae 5ebe a4fd 7fbd
-0.15841979 0.10010377 -0.24387178 0.2413562 -0.13141939 -0.18342789 -0.8529175 -2.0957026
-0.37202618 0.07414648 0.36261865 0.050856385 0.042162634 0.07024693 0.030213725 0.048886392
0.6166379 0.037312794 -1.6234337 0.7459337 0.38304335 -0.045205127 0.28261405 0.09554544
-0.20463026 -0.06622267 -0.26572797 -0.05892044 0.31816998 0.07461301 -1.5649539 0.69064295
0.37165767 -1.6733702 -0.13082932 -1.555326 1.7470702 0.53156585 -0.029654877 -0.9320135
0.8197476 0.26403257 -0.97815305 0.9597018 0.28636333 -1.2183303 0.7139487 0.3050502
0.22015138 0.13118993 -0.18957478 -0.82766056 -2.1015136 -0.36931115 -0.8678513 0.7526063
-0.26761818 0.042935785 0.26209828 0.06485376 -0.008343149 0.09737666 -0.22511066 0.35996714
-0.055819057 -0.1794005 0.11597465 -0.043112468 -0.00022379763 -0.6871923 -1.276579 -0.3018697
-0.07097072 0.44796577 0.0640182 -0.039380934 -0.037775405 0.04023503 -0.15837197 0.46012604
0.07731737 -0.15556611 0.434335 0.07785436 -1.4172965 1.0043314 -0.35874715 -0.27344516
0.053206358 -0.27506244 -0.8803808 -1.8195825 -0.35489154 -1.6807473 -0.08318004 -1.5680995
-0.31443304 -0.50287217 -0.24440658 -0.13067096 0.1409971 0.10242802 -0.08431869 0.23951869
0.08159128 0.098046996 0.13141549 0.015049858 -0.009637824 0.07872639 0.043667994 -0.667829
0.5488244 0.086048305 -1.1049317 -1.2819227 -0.4670236 -0.76448804 0.7847466 -0.2583665
-0.026888514 0.60166246 0.0002750796 -1.5571527 1.081448 -0.38189465 0.25285035 -0.089170925
-0.19502413 -0.015767211 -0.36934242 -0.22504915 -0.1282588 0.38961297 0.08479828 -0.16066101
0.40916422 0.068812676 0.07727165 0.022834336 0.010713835 -0.011346407 0.3188493 0.074704126
-0.063378476 0.3319815 0.085810535 -2.1826468 0.08730706 0.44215864 -0.129183 0.40601107
0.08381022 -0.08816987 0.25386614 0.08812853 -1.3485013 0.92683196 0.3508322 0.2844937
0.0048219706 -0.18520845 0.3202337 -0.17033876 -0.16806674 -0.16302851 0.52923024 0.057005208
-0.0010812184 -0.0028781637 0.022306915 0.22503011 0.14300714 -0.049271554 0.32876477 0.17847845
-0.07237696 -1.2939298 -0.40961093 -0.42069238 -0.013205287 0.29811245 0.09387626 -1.0761042
-1.2750719 -0.45706278 -0.032781888 0.37683657 0.07308336 -1.1867797 -1.0123984 -0.4576248
-1.6474273 -0.0695715 -1.5700147 0.15726846 0.14486438 0.0051012584 -0.12469381 -1.043524
-0.20290509 0.5170228 -0.011447363 -0.12114179 -0.16395092 -0.45410803 -0.22878727 0.13920054
0.06099937 0.002607868 0.0067316834 -0.2755955 -0.2341015 -0.82792836 -1.532885 -0.34039947
-0.02402308 -0.47508118 -0.21411258 -0.054896515 0.15036128 -0.22152585 -0.058901265 0.4032499
0.07998125 -0.2117041 -0.061765347 -0.26356962 -0.07533481 0.45468086 0.06546292 0.012566696
0.4692838 0.0712211 -1.6204859 1.1709199 -0.39301088 -0.36275372 0.17239027 -0.25073063
-1.5700517 0.8605449 -0.39932698 -0.2358297 0.25556484 0.09977429 -0.7602187 -1.8805491
-0.34047127 0.24409668 0.12646993 -0.16510154 -0.11344273 -0.48075253 -0.21746184 -0.06249775

critic.0.bias f4 [256]
00000000: bb32 c13f f579 af3f 2671 db3f 69cc aa3f
00000010: a1ec a23f b042 b23f 347e e53f e53d b93f
00000020: 3446 c93f 61a8 ad3f 341a e43f 0e32 acbf
00000030: fee8 763f 2e52 cf3f 34a3 da3f 0999 d43f
00000040: 2f7e b63f 9259 d83f b762 b53f eb97 993f
00000050: 0ef0 bc3f e20b ba3f 4e4c ae3f da5f ba3f
00000060: db5c ae3f 9549 ac3f 912c b93f 3d07 b83f
00000070: 260f e73f c642 d33f d003 d53f 1e90 adbf
00000080: 388a d23f 817b ab3f b3d2 a93f ac67 a73f
00000090: fe2c b03f d60b cc3f 9acd f23f b122 b43f
000000a0: 57df a83f 0e26 f63f 4fb2 bc3f 8fe2 cf3f
000000b0: 82e1 b73f b217 ac3f 221a ae3f a404 a73f
000000c0: c273 b03f 7514 f63f aa54 b93f ac48 ac3f
000000d0: c297 e33f c03c b63f 2312 aa3f d3f2 af3f
000000e0: ec56 a93f 1fe5 ab3f 26e8 a03f 1e88 fb3f
000000f0: d27c b73f e030 ec3f 2b76 b53f edbd fd3f
00000100: 2eae abbf 8f10 b73f 5beb c83f 1ae9 933f
00000110: 47d1 ca3f 55f2 a33f 4bc5 d03f 36be c43f
00000120: 65e7 ce3f 4b19 b83f 3d2c b53f 7272 c63f
00000130: 65ca b23f bdfc b93f 4488 fe3f 4b53 bf3f
00000140: e584 0040 e886 b43f 954e c63f cf0e a03f
00000150: 324b c93f 3007 ae3f 00ed d83f 4793 ac3f
00000160: df6a e93f 4b34 b63f 4144 b93f c13d b43f
00000170: b43b 993f 9bc9 ca3f 817d a83f 1c66 9b3f
00000180: 1b19 b53f e4fa ec3f 8313 b13f 9617 d13f
00000190: 2ed8 cd3f fe63 bf3f d30d cc3f 052d c73f
000001a0: efcc b53f 69b9 c93f 0970 d43f 2b30 c53f
000001b0: 6a9e c43f 515b c03f 7eaa f93f ffa6 b93f
000001c0: dd46 bd3f c45e c83f fec2 c53f 4bca b13f
000001d0: 8731 9d3f 345b c43f eb2a cd3f c1af ad3f
000001e0: d304 c33f 3402 0040 2d21 b93f 6e2e cd3f
000001f0: ee53 bb3f 3548 b43f d6b8 cd3f cafe ae3f
00000200: fc80 b63f 159d bc3f 680e 0040 0a2d ae3f
00000210: 000f 0140 1fb7 aebf 6410 d03f 5d67 be3f
00000220: d29b c03f b5c1 b03f 17e8 adbf 19f2 de3f
00000230: d117 c93f b65a 9cbf 619a b53f d12e da3f
00000240: 9ea4 aa3f 4164 af3f 9fdf c73f c25e ba3f
00000250: 8f2e f73f 008d bb3f 10e3 ae3f 581a b63f
00000260: 7551 bb3f cf4e c43f 5d00 0040 69a2 0140
00000270: eaee b53f dc1d fb3f c22f cd3f 6f4d c13f
00000280: 9cf0 c33f 4ff9 aa3f 671c af3f 62b7 e63f
00000290: 1511 b13f b150 ba3f 3258 f43f cab0 de3f
000002a0: 1862 ba3f 25db a83f 5119 0140 9ec9 ad3f
000002b0: 1310 9ebf e1da c53f bf16 ca3f cf5b ce3f
000002c0: ac9e a83f e7f9 b73f db84 a63f 9057 ac3f
000002d0: 0042 9b3f 81dd ae3f 50b3 b33f b13a bd3f
000002e0: cd96 b63f 9e15 c23f f7d6 cd3f 16ca b93f
000002f0: 7822 d63f ef30 c93f d70f d83f 51f7 b73f
00000300: 44e9 b43f f34c 0140 4397 d33f c1b2 af3f
00000310: d206 cb3f faa5 8d3f e22f ce3f 373a adbf
00000320: 1be5 c93f 3fa2 a63f e106 b43f 0f8d a83f
00000330: 6f38 b83f e56c c83f 89e3 bf3f de74 ac3f
00000340: 18a5 c73f ef67 ad3f f882 c73f 76a5 b03f
00000350: c1d9 e13f 5016 b23f fe45 b2bf 4719 ae3f
00000360: 066e a33f f99b b63f e223 b53f 9706 ac3f
00000370: b141 bb3f 2097 b53f 41cd b63f a2b3 cf3f
00000380: bfd6 fa3f fa0a b63f 9468 0540 3067 acbf
00000390: cb73 b33f d432 ad3f 3002 b53f 70da c73f
000003a0: 1d9a c83f 7530 ba3f e8a9 cb3f 7a1d d33f
000003b0: 3704 ce3f fe2b d13f 1f4c c93f 4755 b43f
000003c0: bfec b83f 9331 a43f 98b5 b1bf 5de7 b43f
000003d0: cb90 b93f 987d a93f 6a5f b73f 4b13 6a3f
000003e0: 7c3b c63f f34d b63f a116 0040 3ab5 fc3f
000003f0: 7a39 773f 4d95 af3f 6767 b43f 2375 bb3f
1.5093607 1.3709093 1.7143905 1.3343631 1.2728463 1.3926601 1.7929139 1.4472014
1.5724549 1.356701 1.7820497 -1.3452775 0.9644927 1.6196954 1.7081056 1.6609203
1.4257258 1.6902335 1.417075 1.1999487 1.4760759 1.4534876 1.3617036 1.4560502
1.3622087 1.3459955 1.4466726 1.4377209 1.8051498 1.6504753 1.6641788 -1.3559606
1.6448431 1.3397065 1.3267425 1.3078513 1.376373 1.5941112 1.8968995 1.4073087
1.3193158 1.9230363 1.4741915 1.6241015 1.4365695 1.3444731 1.3601725 1.3048291
1.3785326 1.9224993 1.4478962 1.3459678 1.7780688 1.423729 1.3286785 1.3745979
1.3229651 1.3429297 1.2570846 1.9650915 1.4334967 1.8452415 1.4176687 1.9823586
-1.341253 1.4301928 1.5696825 1.1555512 1.5845116 1.2808329 1.6310209 1.5370548
1.6164366 1.4382719 1.4154125 1.5503676 1.3968016 1.4530255 1.9885335 1.4947294
2.0081112 1.410367 1.5492731 1.2504519 1.5726073 1.3595943 1.6947327 1.3482445
1.823574 1.4234709 1.4473954 1.4081346 1.1971345 1.5842775 1.3163301 1.2140536
1.4148287 1.8514066 1.383408 1.6335323 1.6081598 1.495239 1.5941719 1.5560614
1.4203166 1.5759708 1.659669 1.5405325 1.5360844 1.5027868 1.9505155 1.4504088
1.4787251 1.565392 1.5450132 1.388986 1.228074 1.5340333 1.6028723 1.3569261
1.5235847 2.0001345 1.446325 1.6029794 1.4634988 1.4084536 1.6072032 1.3671505
1.4258113 1.4735438 2.0008793 1.3607495 2.0165405 -1.3649634 1.6255002 1.4875294
1.5047553 1.3809115 -1.3586453 1.7417632 1.5710393 -1.2215183 1.4187738 1.7045537
1.3331487 1.370247 1.5615119 1.4560168 1.9311084 1.4652405 1.3663044 1.422679
1.4634234 1.533655 2.0000222 2.0255377 1.4213536 1.9618487 1.60302 1.5101756
1.5307803 1.3357333 1.3680543 1.8024714 1.3833338 1.4555875 1.9089415 1.7397702
1.4561186 1.3191878 2.0171702 1.3577154 -1.2348655 1.5457422 1.5788192 1.6121768
1.3173423 1.4373139 1.3009294 1.3464222 1.2129517 1.3661348 1.4039097 1.4783536
1.4264771 1.5162847 1.6081227 1.4514797 1.6729269 1.5718058 1.6879834 1.437235
1.4133687 2.0203216 1.6530536 1.3726426 1.5861456 1.1066277 1.6108363 -1.3533391
1.5773042 1.3018264 1.4064599 1.3168048 1.4392222 1.5658232 1.4991313 1.3473165
1.5597258 1.3547343 1.5586843 1.3800495 1.7644578 1.3913059 -1.392761 1.3601464
1.2767951 1.4266349 1.4151576 1.3439511 1.4629422 1.4186745 1.4281389 1.6226695
1.9596785 1.42221 2.084508 -1.346899 1.4019712 1.3531137 1.4141293 1.5613537
1.5672032 1.4546038 1.5911226 1.649337 1.6095036 1.634155 1.5726355 1.4088525
1.4447249 1.2827629 -1.3883543 1.4133106 1.4497312 1.3241453 1.4325993 0.9143569
1.5486903 1.4242538 2.0013812 1.9742806 0.9657208 1.3717438 1.4094056 1.4645122

critic.2.weight f4 [1, 256]
00000000: dde6 9bbf c8f2 82bf 288f b6bf 1901 57bf
00000010: 4453 33bf 4924 44bf a216 c3bf 7ad4 2bbf
00000020: 7a9d 90bf 879f 3bbf bebb b9bf fff4 1a40
00000030: 6813 b7bf cd21 b9bf dc76 bebf eed3 c5bf
00000040: 25f7 8ebf 7f04 b8bf ca82 94bf d397 1fbf
00000050: 1a1c 9ebf b613 96bf 24b9 4fbf c57f 8ebf
00000060: 72ef 30bf ba98 36bf 33d1 1cbf 4c12 28bf
00000070: 2960 a0bf 8238 8ebf 881e 9abf 534e 1540
00000080: 386c 89bf 3413 27bf 7dcb 39bf 030c 45bf
00000090: 9c5f 3bbf 53c2 85bf 2fb0 b1bf 292a 97bf
000000a0: ee58 4bbf 42db a6bf 2316 89bf d986 90bf
000000b0: d5c8 1cbf c4d5 28bf 13fa 47bf cadd 1fbf
000000c0: 6402 15bf eae6 d1bf 4110 21bf 5601 25bf
000000d0: 45b6 cbbf 92fa 8cbf 45d6 8bbf d72e 27bf
000000e0: b5b6 42bf 5b71 60bf 2e3e 4dbf 13de a9bf
000000f0: d68f 22bf b37d bcbf 07d8 3bbf 3f58 a8bf
00000100: d9a2 1040 b3af 55bf da0a 74bf 6671 8cbf
00000110: f7f6 8cbf 7c49 45bf 3c67 8bbf 6731 94bf
00000120: fb3c 91bf 0e8f 9cbf a6cf 18bf 7768 93bf
00000130: 72aa 34bf 1016 2ebf a4dd a4bf 30c3 94bf
00000140: 822f a0bf 6bf9 1ebf d052 abbf cdd3 7dbf
00000150: 95d1 90bf 645e 2fbf 0991 bfbf 7b5d 60bf
00000160: 2420 d1bf f2b4 1bbf 061b 1cbf f3c7 96bf
00000170: 1dd8 22bf 21ae 9cbf 2313 63bf 5aeb c5bf
00000180: da87 23bf 6f09 c7bf ddf3 37bf d042 89bf
00000190: 34f4 91bf aa9a a0bf 20bc 82bf 7102 9abf
000001a0: c6c4 8cbf 4c72 95bf 3c78 cdbf 6036 9fbf
000001b0: f255 99bf 9ac1 50bf 7204 a6bf 4ba6 90bf
000001c0: ffe0 9dbf eb37 9fbf 715d a5bf 565b 35bf
000001d0: 1a48 3dbf 845a 8fbf ace0 8fbf 4a8e 67bf
000001e0: ccb8 98bf 4301 aebf fe15 a0bf 97bd 92bf
000001f0: 231b 8bbf 0ecc 8ebf 53c5 91bf 52f0 26bf
00000200: 81c6 9fbf 281a 1cbf f5b5 a5bf fe8c 22bf
00000210: 84db a5bf bd6c 1640 21bf 9abf 625c 8ebf
00000220: 0419 8fbf 3b79 80bf 4abc 1640 bf03 cdbf
00000230: 44e3 9cbf 769c 0940 0682 2dbf 651f bbbf
00000240: d47a 8dbf f752 46bf be4a 8ebf 6303 96bf
00000250: eb61 a2bf 0324 93bf a6c7 7dbf 1252 23bf
00000260: 3034 a0bf b4dd 9fbf c8f6 a6bf 5d89 a2bf
00000270: 1579 28bf 55cb b0bf 97a8 86bf db0b 72bf
00000280: 93c1 8fbf fed6 2abf 9ab1 1bbf 4ee9 c2bf
00000290: e54c 8cbf 7bb8 2bbf 0ad0 aabf e66b babf
000002a0: 9cff 8dbf a476 87bf ad7d a8bf 7db6 34bf
000002b0: 6400 0a40 79f9 83bf 733b 86bf 62c1 87bf
000002c0: 3912 30bf f4d3 24bf 77ba 2bbf 562c 2cbf
000002d0: dbc0 8abf 8187 2dbf 9334 94bf 02d9 8cbf
000002e0: 5b60 29bf df22 95bf a9ea 87bf 6f47 16bf
000002f0: c2f3 8cbf 90c7 8cbf 37e4 97bf f650 a2bf
00000300: 65db 27bf 0b10 a4bf d7cb 88bf e949 14bf
00000310: 6332 8ebf cd69 66bf 5f34 8bbf bd64 1540
00000320: 0e90 8ebf d292 95bf 32b7 38bf 5e33 2fbf
00000330: d48a 99bf 35c9 8abf 5f5a 98bf fd9f 3abf
00000340: 65f2 90bf b4c2 8fbf 686e 9ebf 0c83 33bf
00000350: 049d a9bf fc72 82bf 2d05 1540 1cae 32bf
00000360: 89e8 94bf b0e7 92bf ea67 3ebf d011 46bf
00000370: 964e 7dbf ed93 26bf bcf3 2ebf afde 8abf
00000380: 4e1a a3bf 4e05 1dbf 0f35 a6bf b126 1340
00000390: 0dfe 22bf e09a 3ebf 7e03 73bf cb0c a5bf
000003a0: 9687 88bf 97cd 86bf fa34 9abf 19de 8dbf
000003b0: e792 87bf 8fee 8abf 02d3 98bf 359b 92bf
000003c0: f035 90bf 77a9 28bf 3035 1740 38a0 96bf
000003d0: 727b 1abf 1828 45bf 930b 36bf e701 a6bf
000003e0: 03c9 88bf 72f6 89bf 31af acbf 6a1f adbf
000003f0: e802 b1bf 3272 80bf 5d53 41bf 3ccd 18bf
-1.2179829 -1.0230341 -1.4262438 -0.8398605 -0.7004893 -0.76617867 -1.5241282 -0.6712109
-1.1298058 -0.73290294 -1.4510419 2.4212034 -1.4302797 -1.446344 -1.4880023 -1.5455301
-1.1169173 -1.4376372 -1.1602414 -0.6234104 -1.2352326 -1.1724765 -0.8114188 -1.1132742
-0.69115365 -0.7132679 -0.6125671 -0.6565292 -1.2529346 -1.1110995 -1.2040567 2.3329055
-1.0736151 -0.65263677 -0.72576123 -0.76971453 -0.73192763 -1.0449928 -1.3881892 -1.1809741
-0.7943257 -1.3035662 -1.070988 -1.1291152 -0.61243945 -0.6595118 -0.7811596 -0.624478
-0.5820677 -1.6398594 -0.62915426 -0.64455163 -1.5914999 -1.1013968 -1.0924765 -0.65305847
-0.7606004 -0.87672967 -0.80173004 -1.3270897 -0.63500726 -1.472586 -0.73376507 -1.315193
2.2599394 -0.8347122 -0.9532906 -1.0972106 -1.1012868 -0.77065253 -1.089088 -1.1577576
-1.1346735 -1.2231157 -0.59691846 -1.1516255 -0.7057258 -0.68002415 -1.2880139 -1.1622066
-1.2514498 -0.6209933 -1.3384647 -0.9915131 -1.1313959 -0.68503404 -1.4966136 -0.8764264
-1.6337934 -0.60822976 -0.60978734 -1.177977 -0.6361101 -1.224064 -0.88701075 -1.5462449
-0.6387917 -1.5549754 -0.7185648 -1.0723515 -1.140265 -1.25472 -1.0213661 -1.2031995
-1.099755 -1.1675506 -1.6052318 -1.2438469 -1.1979353 -0.8154541 -1.2970107 -1.1300749
-1.2334288 -1.243894 -1.2919141 -0.7084249 -0.73938143 -1.1199498 -1.124044 -0.9045149
-1.1931396 -1.3594135 -1.2506711 -1.1464108 -1.0867656 -1.1156023 -1.1388344 -0.6521045
-1.2482454 -0.6097741 -1.2946154 -0.63496387 -1.2957616 2.3503869 -1.2089578 -1.1121943
-1.1179509 -1.0036997 2.3552423 -1.6016768 -1.2256856 2.1501746 -0.67776525 -1.4618956
-1.1053109 -0.77470344 -1.111656 -1.1719784 -1.2686132 -1.1495365 -0.99132764 -0.63797104
-1.2515926 -1.2489533 -1.3044062 -1.269817 -0.65809757 -1.3812052 -1.05202 -0.9454934
-1.1230949 -0.667343 -0.60817873 -1.5227449 -1.0960966 -0.6707837 -1.3344738 -1.4564178
-1.1093631 -1.0583081 -1.3163353 -0.70590955 2.1562738 -1.0310508 -1.0486892 -1.0605891
-0.68777806 -0.64385915 -0.670814 -0.6725515 -1.0840105 -0.6778489 -1.1578544 -1.1003726
-0.6616265 -1.1651267 -1.0618488 -0.5870275 -1.1011889 -1.0998402 -1.1866521 -1.2680957
-0.65569144 -1.2817396 -1.0687207 -0.5792528 -1.1109127 -0.9000519 -1.0875357 2.3342736
-1.1137712 -1.1685431 -0.72154534 -0.68437755 -1.1995492 -1.0842654 -1.1902579 -0.7290037
-1.1323973 -1.1231294 -1.2377443 -0.70121837 -1.3251042 -1.019134 2.328441 -0.6979692
-1.1633464 -1.1476955 -0.7437731 -0.7737093 -0.9894804 -0.65069467 -0.6834066 -1.0849208
-1.2742403 -0.6133622 -1.2984942 2.2992365 -0.636689 -0.7445507 -0.94927204 -1.2894529
-1.0666378 -1.0531491 -1.2047417 -1.1083404 -1.0591706 -1.0854052 -1.1939394 -1.1453615
-1.126646 -0.6588358 2.3626213 -1.1767645 -0.6034461 -0.77014303 -0.7111141 -1.296933
-1.0686344 -1.0778334 -1.3490964 -1.3525212 -1.3829012 -1.003485 -0.7551783 -0.5968816

actor.0.weight f4 [256, 3]
00000000: 93a0 13bc 9e93 843d 336e 8abb 561d 6e3c
00000010: fe6f 893b 6610 1e3a f9e5 263d bcc7 16bc
00000020: 309b fc3a 9f31 debe 991b d33e eb5a a73d
00000030: 923f ca3b a46d 243a ebe7 2bbb 7fc3 103c
00000040: d968 1a3b 6bc5 79bb 6329 c23d dac4 953d
00000050: b5b7 223c 5eb3 663c 2157 9d39 e7a6 11bc
00000060: aeb1 263d 3964 083d 9b4d 0ebb 6dc5 aa3e
00000070: da13 26be 6282 f23c 4292 e83e 28c2 e7be
00000080: 476b 86bd 609d 2b3d 1179 913d 0b58 ec3b
00000090: dc23 1dbf 7d09 563e 6094 883d 57e0 ecbe
000000a0: ee75 713e 7fc9 7a3d dbdd 8fbb a66c 26bc
000000b0: 7d5b 6e3a 00a6 093c 35a1 093c a14e 463b
000000c0: 3e48 5dbb 830b c7bb a27f 0f3a c43b 5cbc
000000d0: e0c7 593c 7804 113c 1ddd 873c 6fa1 f6ba
000000e0: 0728 403b 56c8 8c3e 41c0 22be bf20 863d
000000f0: 7941 843c 1357 773c 9d8c 49bb bcf7 6b3c
00000100: 7a43 cabb 0ab2 aa3a 6139 733c d5b0 3a3b
00000110: 7d29 58bb 9d08 1ebb c12b 223a b5bd 7f3a
00000120: 486f e03e f9e9 b1be 890c 573d e000 003c
00000130: d33a 663b 42fa 22bb ecc7 b1be 9dc4 91bd
00000140: 99d5 9cbc 93cc b7bd e66d 403e b402 443c
00000150: 9093 caba 0e90 cebb 5995 48bb 6b7c 8eb9
00000160: 5139 18bc 1961 23bb 21d2 e83b 2598 4f3b
00000170: 6652 2dbb 6cf3 c2be e937 833e 0f86 0b3e
00000180: 3687 9dbe b883 523e fed3 023e 4aec eabe
00000190: 308d 933e 2611 813d a9b8 16be 8f23 a43b
000001a0: 7f70 55bc 25f8 6d3c ed12 013b 6d9e 79bb
000001b0: 06dc 9cbc 4153 0e3c 402a 0b3a 58e5 72be
000001c0: 5d3d 8f3e 5a8e 373d f380 ee39 edc4 98bb
000001d0: 5009 98ba f7c4 e9bb 94fe 09bc fa6b 993b
000001e0: 334e a1ba c3fe fcbb 0778 05bb 36dd 2b3c
000001f0: 9a48 8cbd 112d db3a 7e04 b53d ca9a 57be
00000200: c39e 623c 434f 2dbd 282c e13d ed53 463b
00000210: 52b9 273c 7fc4 093d b8af 983b 09c5 b4bc
00000220: 7f17 b3bc 9b89 023b 1ce5 b6be 9ec5 c03d
00000230: 3357 9f3b 2aea a2be 8d6a b73e 2715 933d
00000240: e142 80bd e94c 273d a823 64bb b318 433d
00000250: 9803 03bc a14f 43bb fab4 f93e b3e0 90bd
00000260: 6002 f33c 74c1 993c 7b3c 8a3c d807 69bb
00000270: 5e15 af3c b97c f23d 6635 3f3c 5e83 cbbe
00000280: 99e0 4e3e 0345 293e b7d7 8ebe 2c85 403e
00000290: 136e ed3d ad1c 66bc 09cf b0bc 81dd a239
000002a0: 53c9 443c fe85 2d3b 9a61 e03a 28f1 18be
000002b0: 5b2e 983c 070c d1bd cb65 af3c 3124 4fbc
000002c0: 4d4d 01bb 8366 e53b 167a 2b3b 6b4a 30bb
000002d0: 77c5 0d3e 6881 df3d 398f 393c df67 7ebd
000002e0: dab5 05bd 80c8 b8b9 3170 e7be 1b38 ab3e
000002f0: 68e8 9e3d 4a58 103c 3709 573b ccd2 763a
00000300: 803f b93c afac a3ba 0f29 71ba 0e52 dc3c
00000310: 3d04 3938 f41b 093a 7292 adbe 2f29 793e
00000320: bb7c 1b3e d266 7c3e 2a5c 01be fb69 a43c
00000330: 46d3 4f3e 6079 9fbe 9855 a4ba 92b4 ddbe
00000340: bcd7 0e3e 3ba0 2e3d 3f4e 833b 8702 a23d
00000350: 4cfb aa3b fd15 deba 2957 15bc b3ce 8abb
00000360: 3e92 033e 14a3 3b3e c121 323c 1505 b43c
00000370: a237 d93d 859e 283c 6951 303d 0a6b 6fba
00000380: 9ecf 13bc 725b a73e e504 79be a261 99bb
00000390: 329e e13e 46af b9be 588c 8bbb 1d5f cdbb
000003a0: 06e1 24ba 203e acba ac14 7a3c 6956 7b3c
000003b0: 1564 f83a 8319 a83c a31b f43d eed9 743c
000003c0: 201b cd3d 95f5 0c3d fd6a 21bc 0cd5 673c
000003d0: 298c 363d 4d54 75ba 4218 913e 1dc3 c33d
000003e0: 1950 9d3c 6797 aebe 4bfb 103e a73c 0a3e
000003f0: 3086 cfbe 502d a33e cd3a 7d3d e768 193c
-0.009010452 0.06473468 -0.0042245626 0.014533361 0.0041942587 0.0006029665 0.040746663 -0.009202894
0.0019272324 -0.43397233 0.41231993 0.08171638 0.006172129 0.0006272441 -0.0026230763 0.008835672
0.002356103 -0.0038112055 0.0948055 0.07312937 0.0099314945 0.01408085 0.0003001029 -0.00888989
0.040696792 0.033298705 -0.0021713737 0.3335375 -0.1621851 0.029603187 0.45424086 -0.45265317
-0.0656343 0.04189813 0.0710317 0.007212644 -0.6138284 0.20902057 0.06668925 -0.46264908
0.23580143 0.061227318 -0.004390461 -0.01015774 0.00090926123 0.008401394 0.008400251 0.0030259269
-0.0033764984 -0.0060743704 0.0005474036 -0.013441984 0.013292283 0.008851163 0.016584927 -0.0018816422
0.0029320733 0.27496594 -0.15893652 0.065492146 0.016144501 0.015096444 -0.0030753978 0.014402326
-0.0061725946 0.001302303 0.014845223 0.0028486748 -0.0032983713 -0.002411402 0.00061863294 0.00097557466
0.438349 -0.3474882 0.05250219 0.007812709 0.0035130277 -0.0024868404 -0.3472284 -0.07117579
-0.01914482 -0.08974566 0.18791923 0.011963535 -0.0015455354 -0.0063037938 -0.0030606596 -0.0002717705
-0.009291009 -0.00249297 0.0071051274 0.0031676379 -0.0026446818 -0.3807634 0.25628594 0.13625358
-0.3076722 0.20558059 0.12776181 -0.458834 0.28818655 0.06302099 -0.1471888 0.0050091217
-0.013027309 0.014524494 0.0019695119 -0.0038088814 -0.019147884 0.008686841 0.0005308725 -0.237203
0.27976504 0.04481349 0.00045490972 -0.0046621473 -0.0011599455 -0.0071340757 -0.008422513 0.0046820613
-0.001230663 -0.0077207997 -0.0020365731 0.0104897525 -0.06849785 0.0016721805 0.088387474 -0.21055141
0.013831797 -0.042311918 0.1099475 0.0030262426 0.010237055 0.03363466 0.004659619 -0.02206661
-0.02186179 0.0019918445 -0.35721672 0.094126925 0.00486269 -0.31819278 0.3582348 0.07181769
-0.06262756 0.04084483 -0.0034811292 0.047630977 -0.007996462 -0.0029802101 0.48770887 -0.07074108
0.029664218 0.018769003 0.016874542 -0.0035557654 0.021372493 0.11840195 0.011670446 -0.39748663
0.20202865 0.16530232 -0.27898952 0.18800801 0.115932606 -0.014044923 -0.021583097 0.0003106408
0.01201089 0.002647757 0.0017118931 -0.14935744 0.018576792 -0.10207372 0.021410843 -0.012642906
-0.0019729913 0.0070007457 0.0026165298 -0.0026899825 0.13844858 0.10913354 0.011325651 -0.062110778
-0.03264413 -0.000352446 -0.45202783 0.33441243 0.07759172 0.008810112 0.003281189 0.00094155665
0.022613287 -0.0012487377 -0.00091995386 0.026894595 4.4111384e-05 0.00052303006 -0.3390079 0.24332117
0.151843 0.24648598 -0.12632814 0.020070067 0.20295438 -0.3114729 -0.0012537716 -0.43301827
0.13949484 0.042633276 0.0040071304 0.07910638 0.005217945 -0.0016943809 -0.009115019 -0.0042360662
0.12848756 0.18323928 0.010872305 0.02197508 0.10606314 0.0102917 0.04304639 -0.00091330765
-0.009021668 0.32686955 -0.24318273 -0.004680828 0.44066006 -0.36266536 -0.0042586736 -0.006267442
-0.00062896346 -0.0013141073 0.015263718 0.015340426 0.0018950725 0.020519977 0.11919334 0.014944537
0.10014939 0.034413893 -0.009852168 0.014149915 0.04456726 -0.000935857 0.2833882 0.09558699
0.019203233 -0.34099886 0.1415836 0.134997 -0.40532064 0.31870508 0.061823655 0.00936339

actor.0.bias f4 [256]
00000000: 85c1 d6bd a915 adbc a468 58bd 21d7 87bd
00000010: b661 0abd bd42 f3bc ea34 ecbd a4eb 73bc
00000020: 3df2 81bd fbbd f33c 770c 7e3e 084f 82bd
00000030: 7b79 a3bc 0e09 40bd 9a66 0fbd d3f8 24bd
00000040: 7bf9 debc ed5b 14bd 1309 29bd 2711 01be
00000050: b487 24bd 914b 1cbd 9a42 53bd 0f0c dbbc
00000060: fd5d 813d 0b73 cebc 08d0 42bd ddf6 79be
00000070: 6c21 18bd 57fa 13bd 1a27 c0bc cf26 e73c
00000080: 14f5 26bc 2eb0 eabd 9aeb 66bd ce01 0bbd
00000090: 0b24 fcbc 1871 e8bc b34b 9abc feb2 3bbd
000000a0: 2b0f 84bd 2e8d f6bc 345d 19be 783b 43be
000000b0: f4a7 93bd e5c6 95bd c9f9 59be 2b45 f0bd
000000c0: 87c4 1bbe 5f7b 0abb 060f 493e 8a00 4abd
000000d0: 0ce2 59bd 91b9 40bd 07b5 3fbc 9dec 1ebd
000000e0: b6ea 11bd c982 ee3d bb9a 13bd 1944 c0bc
000000f0: 86d6 2abe 6d4c 16be cd3c df3a cedc a5bc
00000100: 3514 dfbc 7775 06bd 1137 d1bc 47a6 a53c
00000110: 421c fbbc 3624 77be 7efd 47bd f4d4 9cbd
00000120: 95a6 4bbe 4031 45bd 9e98 d0bd 9246 eb3d
00000130: 2099 2a3e 20a4 dfbc 090c 36bd f1eb 15bd
00000140: 8804 0bbd a482 80bd b0ae e8bd f28f 96bd
00000150: 9125 03bd bd15 16bd 31e7 f0bc a94f a1bd
00000160: f670 4ebd 6678 13bd f039 d6bd 12f2 d4bc
00000170: 73d8 1dbd 0481 3ebd eb23 dfbd fbda a6bc
00000180: ad57 fbbd 11b2 f7bd e624 10bd 4465 01be
00000190: e3dc cd3d 216b 1dbd 47d5 87bd f1f7 89be
000001a0: 3d67 03bb e744 1dbe 7af2 ee3d 9138 1bbd
000001b0: 0c99 543c f7af b8bd aa81 54bd 943d eebd
000001c0: beb0 4cbd 1e45 bbbc 57cf 7cbd d2d7 38bd
000001d0: e320 12bd 9328 0ebd c73e c8bd 5059 20bd
000001e0: 3f83 22bd 8d9b e8bc db38 07be 4d44 80bd
000001f0: f286 02bd beff a33d 091f 6abe d42d c0bd
00000200: 3f0f 1fbd da19 16bd 76e6 e73c ab52 7d3c
00000210: 5922 94bd f467 fb3d 46a3 dfbc dc8b 94bd
00000220: 8ec9 0dbd 85e9 babd db25 c5bc 9abb 23be
00000230: 0706 4bbd 45c3 a7bd 19b3 f8bc 6d4e 23be
00000240: dad4 d7bd a7f3 b8bd d049 4d3e 768b 9ebd
00000250: 9513 d4bc a620 07bd 9b9e 48be 93c8 1dbd
00000260: ccec 1bbd f457 e93d 774c dabc 83f3 efbc
00000270: 51a4 00be 93a3 c1bd 198e e2bd 0cce ccbd
00000280: 8022 25bd b6f8 0a3e a3ba f6bd 7c8a 1dbe
00000290: bc09 99bc 7f97 a5bd 2203 39bd 2483 10bd
000002a0: 8c90 1bbc bf77 4d3d 1528 363d eda5 87bd
000002b0: 89d0 37bd 307f cb3d bd0f 9e3d f0cf 03bd
000002c0: 10d8 10bd 1fd0 69bc 577d 0abd 6f5f 23bd
000002d0: 304c c8bc 2b01 44bd 3f51 4ebd 8fba eebd
000002e0: e013 f3bd 09f8 1fbd 948c 2ebd 17c4 2fbe
000002f0: ce3d 53bc be86 b8bd f62d 1ebe 70e9 e9bc
00000300: c061 50bd 5ebc 2dbd 8943 e7bd 17f0 9dbd
00000310: e368 f6bc 0e58 10bd 58b8 e8bc c445 5dbd
00000320: d518 0dbd 519b c5bb 3bdd 84bd 11e5 2cbd
00000330: 3a52 fdbd d97f dabc 5b6b a9bd f195 ecbc
00000340: 7e13 e1bd a01e dabc 9746 d5bc acc5 06be
00000350: 68cd 2cbe ab30 19bd d12c f7bd c69f 76bd
00000360: 132f b6bd c7f4 67be 3ad2 adbc 3c0a a5bc
00000370: d9e4 2cbd 6d53 9a3d 56a3 febc 40d1 3ebb
00000380: 7f2a 17bd 08d4 9bbc fb15 1cbd 448b b9bc
00000390: 633e 0bbe 2816 9b3d 4904 febb ddb4 2c3d
000003a0: 32c8 6bbd d33c 43bd 14d0 11bd cbf0 bcbd
000003b0: 08e2 86be c9db cd3d 3eb1 febc aae2 0b3e
000003c0: 898e 20bd 5c27 0cbc 40fd 3ebd c70a c2bd
000003d0: 6e8d e7bd 6c7c 52be 73af dd3d 37a3 02be
000003e0: d04c cbbd c283 d9bd 2e37 27bd 046d bebd
000003f0: 8e52 15bd a747 33be e6c8 0fbd c536 13bd
-0.1048613 -0.021128492 -0.052834168 -0.066328295 -0.03378459 -0.02969491 -0.1153353 -0.014887724
-0.063450314 0.029753676 0.24809442 -0.0636273 -0.019955387 -0.046883635 -0.035009958 -0.04027636
-0.027218571 -0.03622048 -0.04126842 -0.126042 -0.04016848 -0.038158003 -0.051577188 -0.026739148
0.06316755 -0.025201341 -0.047561675 -0.24410577 -0.03714125 -0.036127415 -0.023456145 0.028216748
-0.010190267 -0.11459385 -0.05637703 -0.033937268 -0.030778905 -0.02837424 -0.018834924 -0.045824997
-0.064482056 -0.030096617 -0.1497696 -0.19065654 -0.07209769 -0.07313327 -0.21286692 -0.11731943
-0.15211688 -0.0021130664 0.19634637 -0.04931692 -0.05319409 -0.04705197 -0.011700875 -0.03879987
-0.03562423 0.11646039 -0.036036234 -0.023469971 -0.16683397 -0.14677592 0.001703167 -0.02024689
-0.027231315 -0.032826867 -0.025538953 0.020220889 -0.030653123 -0.24134907 -0.048825733 -0.07657805
-0.19887765 -0.04814267 -0.101853594 0.114880696 0.16659975 -0.02729994 -0.04444507 -0.036601964
-0.03393987 -0.06274918 -0.11361444 -0.07351674 -0.032018248 -0.036641825 -0.029407116 -0.07876522
-0.050400697 -0.036003493 -0.104602695 -0.025994334 -0.0385365 -0.046509758 -0.10895523 -0.02036809
-0.12272582 -0.1209451 -0.03519144 -0.12636286 0.100518964 -0.038432244 -0.06632476 -0.26946977
-0.0020050548 -0.15358315 0.116673425 -0.037895743 0.012975942 -0.09017938 -0.05188147 -0.11632839
-0.049973242 -0.022860106 -0.061721172 -0.045127697 -0.035675894 -0.034706663 -0.09777599 -0.039147675
-0.039675947 -0.028394485 -0.13205282 -0.06263027 -0.031866975 0.08007763 -0.22863401 -0.09383741
-0.0388329 -0.036645748 0.028308135 0.015461604 -0.07233114 0.12275687 -0.027299535 -0.072532386
-0.034616046 -0.091265716 -0.024065902 -0.15989533 -0.049566295 -0.081915416 -0.030358838 -0.15947886
-0.10538645 -0.09030848 0.20047688 -0.07741444 -0.025888244 -0.03299012 -0.19591753 -0.03852136
-0.038067624 0.11393729 -0.02664779 -0.02929092 -0.12562682 -0.094550274 -0.11062259 -0.10000238
-0.040316105 0.13571438 -0.12047317 -0.15384859 -0.0186814 -0.08085536 -0.045169003 -0.035281315
-0.009494912 0.050163027 0.04447182 -0.06623445 -0.04487661 0.099363685 0.077178456 -0.032180727
-0.035362303 -0.014270811 -0.03381094 -0.039885934 -0.024450392 -0.047852676 -0.05037045 -0.11656677
-0.11869025 -0.039054904 -0.042614534 -0.17164646 -0.012893153 -0.09010075 -0.1544722 -0.028553694
-0.05087447 -0.04241597 -0.11292178 -0.07711809 -0.03007931 -0.035240225 -0.028408214 -0.05402161
-0.03444751 -0.006030478 -0.06487509 -0.042210642 -0.12369199 -0.02667229 -0.082724296 -0.028880091
-0.10990046 -0.026625931 -0.026034636 -0.13161343 -0.16875231 -0.03739993 -0.12069095 -0.060210966
-0.088956974 -0.22651969 -0.021218408 -0.020146482 -0.042210434 0.075354435 -0.031083744 -0.0029116422
-0.03690576 -0.019022003 -0.0381069 -0.022649415 -0.13598017 0.07572585 -0.0077519757 0.042164672
-0.057563968 -0.04766543 -0.03559883 -0.09225615 -0.26344323 0.10051686 -0.031090375 0.13660684
-0.039198432 -0.008554306 -0.046628237 -0.09474712 -0.113062724 -0.20555276 0.1082448 -0.12757574
-0.0992676 -0.10620834 -0.040824108 -0.09298137 -0.036455683 -0.17507802 -0.0351037 -0.035940904

actor.2.weight f4 [1, 256]
00000000: 14a3 d13b bb19 9cb9 1b26 933a 45ea 513e
00000010: 91df 553a cc25 0cb9 c32f 97bb e53b abbb
00000020: 35e5 86bb b21d 27bd 9431 88be 6d87 153c
00000030: bd29 663e c0d4 353e 7932 fd3b ccec 013c
00000040: 8371 febb 7ba2 3bba daaf 4abb ac19 89bd
00000050: b3a3 5db6 3333 90bb 14ec 2e39 951a 8dbb
00000060: 1e4b 3ebe 4cd3 a5b9 5d61 2fbd a5b3 733d
00000070: cb8a 773b 812c 2a3b 740c 1137 0b7e 363e
00000080: fe1c 173e 66f7 e23d 0c85 a8bc 75ba 42ba
00000090: 7929 203b d514 673d fffd 7a3a 3261 013a
000000a0: 0279 323b b30d 4b3b a64f fc3c 0c9b 8a3c
000000b0: a747 35b7 06b1 ad3b e60b a33c c0cb 0c3e
000000c0: efee a53b 43e8 0c3b 1391 7abe c939 e9bb
000000d0: fb04 603c 6c96 263e 8fe5 f33d 92d9 8c3b
000000e0: 0b8f 69bb bfe9 c7bd af65 3939 b2e2 da38
000000f0: 4be7 9bbc 3e59 3b3c 2ff5 1f3e a53d bbba
00000100: e31d 4039 15e2 92ba b908 233e c177 8dbc
00000110: dc7f 50bd c49c e93d 5966 cc3a 306d 1e3c
00000120: 8ecd b1bc d2fd 923b 5782 ca3a a8df 7cbd
00000130: 1ff5 02be 2ac9 2b3b ac9e dcbb 5288 6e3c
00000140: 71d8 debc d5f4 7339 d7a2 49bd 7a14 083e
00000150: a791 193e 924b 2d3a 579b 98ba 479c ff3d
00000160: c845 37bd 21e0 69bc dcbc 693e a801 85bd
00000170: b591 5fbb c5ec 93bb 37a7 6cbd 96e3 80bc
00000180: 30d5 913b a6f7 dfbc 116f 863b c230 d93b
00000190: 0704 b1bd a167 d338 b2ff b83a 5d5f bebd
000001a0: 58c2 f63b 3985 113c 20f7 90bd 88d5 003b
000001b0: c787 87bc 9b78 74bb 9f13 b6ba ab4b 073e
000001c0: b1cf 47bc 1172 5f3a 2144 793a b63c 8c39
000001d0: 5907 36b8 f9e0 c5ba 1eca fb3b 5852 55bb
000001e0: 921a ec3b e6b2 723e 9180 e63b 3cdd 273e
000001f0: f59c c33b e5c9 e6bd c790 2b3c d438 cb3d
00000200: e0b7 ab3a 505d b1bb b042 acbd b161 e0bc
00000210: 976d 9fbd 8171 acbd ced5 a23a 4dcd d43b
00000220: 006e acbb dc1b 3d3e b92b 98bd b434 3b3d
00000230: 69c0 61ba 6fa7 073e 0e03 9db9 f2e6 073c
00000240: 7dc7 c13d dead 3a3b 73fb 18be 6a4b 003e
00000250: 6817 2538 a816 b5bb e438 3f3c bd55 1c3c
00000260: 0832 c03a a21d aebd a8c0 303e a99b acbb
00000270: a22e 2a3c c543 7b3e da82 1a3e 7a25 433d
00000280: bb71 203b d74e 9ebd 0214 89bd 4cd8 ce3c
00000290: 2fd8 2a3c 473f 283a eecf 133b 5e19 54bc
000002a0: 0a38 32be 218a 1fbd 512b 70be 7619 a0bd
000002b0: 0e18 c53a 0548 b3bd 5eda e9bd 70bd 1cbc
000002c0: 0627 f8ba 3a93 a9bd 6b27 f53a 93a3 9fbc
000002d0: 0234 c0bc a987 cdba 5a7a 003e 2fa5 d33d
000002e0: f2d4 2f3e 1d40 003c ecc5 36bb 1b10 bbbc
000002f0: a751 813a b6e1 a6b7 8289 453e 07cb 6e3a
00000300: f160 31bb 8829 883b c304 4e3e 6334 143b
00000310: 5b04 88b9 cb22 4f3b cd01 273b fb40 ec3d
00000320: 7548 09bd a672 3abc 0cfa d8bb 6b04 0e3b
00000330: 0b3d 1b3e 3f63 93bb 413e c93b f020 a3ba
00000340: 6299 60bd 77c0 353b 6b5e d238 08dd e73b
00000350: fb5a b83b 8a1b 0e3a d926 2a39 c4e5 643b
00000360: 4db5 533e 0a54 54bd eeaa 043a 3a8c 52bc
00000370: c186 053b b85c 06be 77fc 2e3b c557 c8bd
00000380: 63ab 39ba dea1 44ba 8785 8cb9 acd4 6e39
00000390: 8131 48bc 20a4 44be a527 e23b f7b5 54be
000003a0: 292a 0eba 25bc 123c c6f3 9e39 8a79 1c3e
000003b0: 9ca1 acbd 19f0 aabd 86d0 363a 831a 78be
000003c0: 573c 89bc 75d7 013e fd60 773a b927 1d3a
000003d0: 0ee4 48bb d86b 363e d7ff 22be e074 1f3e
000003e0: ecb4 febc 8626 f23d 58e6 203c 421d 1b3e
000003f0: ec77 973a 0c62 e03b 0525 87b9 3ddb 46bd
0.0063976143 -0.0002977381 0.0011226566 0.20499523 0.0008158619 -0.00013365521 -0.004613848 -0.005225646
-0.004116679 -0.040799804 -0.26600325 0.009126526 0.2247686 0.17756939 0.007726964 0.007929992
-0.0077649965 -0.00071576954 -0.003092757 -0.0669435 -3.3026852e-06 -0.0044006347 0.00016681879 -0.0043061473
-0.18583342 -0.0003162868 -0.042817462 0.059497494 0.0037771936 0.0025966468 8.645573e-06 0.17821519
0.14757153 0.11082344 -0.020571254 -0.0007428297 0.0024438782 0.05641635 0.00095745915 0.00049354427
0.002723277 0.0030983507 0.030799698 0.016919635 -1.0805124e-05 0.005300644 0.019903135 0.137496
0.0050638835 0.0021500743 -0.24469404 -0.007117484 0.013673062 0.16268319 0.11909019 0.0042983973
-0.0035638239 -0.097613804 0.00017680855 0.00010437275 -0.019031188 0.011434851 0.15620874 -0.0014285339
0.0001832168 -0.0011206294 0.15921296 -0.017269017 -0.050903186 0.11406854 0.0015594467 0.009669587
-0.021704461 0.004485824 0.0015450221 -0.061736733 -0.12788819 0.0026212432 -0.0067327823 0.0145588685
-0.027202817 0.00023265493 -0.04922756 0.13289061 0.14996968 0.0006610687 -0.0011642975 0.124809794
-0.044744283 -0.014274628 0.2282595 -0.064944565 -0.0034113948 -0.004514309 -0.057776656 -0.015733521
0.0044504628 -0.027339768 0.0041025956 0.006628127 -0.08643346 0.000100805664 0.0014114289 -0.09295533
0.007530492 0.00888186 -0.07078385 0.0019658525 -0.016544236 -0.0037303332 -0.0013891346 0.13212459
-0.012195514 0.0008523772 0.0009508748 0.00026748114 -4.3399024e-05 -0.0015096954 0.0076840064 -0.0032550301
0.007205316 0.23701057 0.0070343693 0.16392988 0.0059696385 -0.11268977 0.010471529 0.099229485
0.0013101064 -0.005412735 -0.08411157 -0.027390333 -0.077845745 -0.08420087 0.0012423338 0.0064942003
-0.0052621365 0.18467659 -0.074302144 0.04570456 -0.000861174 0.13247465 -0.0002994765 0.008294808
0.094618775 0.002848498 -0.1493967 0.12528768 3.9360864e-05 -0.0055263825 0.011671279 0.009541926
0.0014663348 -0.08501746 0.17260993 -0.0052675796 0.010387095 0.24537571 0.15088978 0.047643162
0.002448185 -0.07729881 -0.06693269 0.025249623 0.010427519 0.00064181205 0.0022554356 -0.012945501
-0.1740419 -0.03895009 -0.23454024 -0.07817356 0.0015037076 -0.08753971 -0.11418603 -0.00956665
-0.0018932528 -0.08280034 0.0018703764 -0.019487178 -0.0234623 -0.0015680689 0.12546673 0.10334241
0.17171076 0.007827786 -0.0027888967 -0.022834828 0.0009866253 -1.9893847e-05 0.19290736 0.0009109233
-0.0027065838 0.0041553415 0.20119004 0.0022614233 -0.00025943186 0.0031606432 0.002548325 0.115358315
-0.033516366 -0.011379873 -0.006621605 0.0021670114 0.15160005 -0.004497915 0.0061414544 -0.0012445729
-0.054833777 0.0027733126 0.00010031167 0.0070759095 0.00562608 0.0005420974 0.00016226935 0.003492699
0.2067463 -0.05183796 0.0005060871 -0.012850815 0.002037451 -0.13121307 0.0026700774 -0.09782366
-0.00070827286 -0.0007500927 -0.00026802366 0.00022776675 -0.012218834 -0.19203234 0.0069016987 -0.20772539
-0.00054231525 0.00895599 0.00030317734 0.15280738 -0.08429262 -0.08346576 0.00069738214 -0.24228863
-0.016752405 0.12679847 0.00094367546 0.0005994994 -0.003065351 0.17814577 -0.15917908 0.15571928
-0.03109213 0.11823754 0.009820543 0.1514788 0.0011556125 0.0068476256 -0.00025776788 -0.048548926
