weight/SAC_40000.pt (torch_old, 270761 bytes, 6 tensors)

linear1.weight f4 [256, 3]
00000000: a6d2 2ebf 2c5b ab3e 6720 85be d198 0a3f
00000010: 4034 8ebe 130c 4ebe 3937 d43e a3e5 1d3f
00000020: ed2b 46be 971e 13bf 52de 533f 8771 663e
00000030: 1eec 38bf 1558 60bd 6d38 633e 6909 20bf
00000040: 3b7f 79be abcf 133e 6a7c 533e 8a8a 2d3f
00000050: 3015 a73d 0984 e93e 06ae e6be a436 5cbe
00000060: c805 b93e 77d2 0cbf 18f8 9abd 6cb5 83be
00000070: 5414 353f 8ab2 163e 3dff e43e 39fa 6e3e
00000080: 7445 a33e 5097 ebbd cac7 773e 887d dc3e
00000090: 9bc9 28bf 9637 9e3d 7dcf 423d efd1 0b3e
000000a0: 4bc8 a7be 6cc0 d33d 53a6 bcbe 8a94 343f
000000b0: 9be6 873e 0ea7 5a3e 95de 48be e307 28be
000000c0: d2ae 913d 142b 6cbf 149a 29be 0b9b c13e
000000d0: 9b99 10bf 2cf8 9d3e 1abe c73e c3f3 2dbe
000000e0: 062e a13e 5632 96be 9372 81bf 6271 cbbe
000000f0: 58ad 89be 97b7 19bf ae5e 01be 64c3 cbbd
00000100: aa67 e1be 63ee b7be 40ec c2be cf2e 23bf
00000110: d4c1 d2bd 06ed 8abe d712 e1be 9c55 0bbe
00000120: cbed b63e 65bc 343f 7142 263e f49e 803e
00000130: 1ecf f1be 10f6 e1be 99fb 083f f1b5 babe
00000140: 4aa7 c9be 6b7c d0be 76fa 13bf 3e42 0f3e
00000150: 0a78 9b3e 77c8 70bf 7315 81be 31a7 883e
00000160: 2fff 46bf 05a0 91be c129 14bf 2657 b03d
00000170: d5b2 48be e8a6 08be eaf8 87bf 4844 3abe
00000180: c6fc 563e f690 043d fb45 0c3f e2c1 b03e
00000190: b769 2abf 79fa b5be d462 29bf db1a 183f
000001a0: c810 ba3d 920a 95be 5298 79bf 839f 72be
000001b0: 2b0d 4d3e 989e 383f 2dfb f0bd ee37 b23e
000001c0: 7c66 5abf fe9c 45be 5db0 e23e 5c0c 763e
000001d0: 7b64 993e f7fd 22be 2c89 b73e 2960 81be
000001e0: 07ac 043d 504b 3e3f c13b 0b3e e519 a03e
000001f0: 67ac 14bf 5234 363e aa80 f2be a15b 49bf
00000200: f984 b2be 2daa 0abf 5826 74be f202 b33e
00000210: 6df9 e0be 805f 7abe 77b3 003f 6f62 aebe
00000220: 5578 d83e e878 6bbe 7d8c a73e 7bbc f9be
00000230: 7a39 f23d 4c7d 2c3e 1b41 093f 7885 0a3f
00000240: df6c db3d 3ab6 56be e045 ac3d 79ab c33e
00000250: 9b5a 233f b3ce 833d ab46 b4be e205 4dbe
00000260: ab4c ccbe 7734 5abe f040 fa3d 9edc 91be
00000270: fd53 a6be b8c4 4d3e 00d0 af3a 9118 fd3e
00000280: 5dfd 193f 8093 cbbe 8903 a5be 2964 0b3f
00000290: cdc4 8cbe d7b5 2d3f 38ee 38bf cb57 83be
000002a0: c550 0bbd 9714 3e3f 8b0e 083e cc2b 053e
000002b0: 822c f23c 76b9 b3be c164 b4be 0c34 6ebf
000002c0: 96cd 5cbe c353 033f eb5e bebe 1442 8ebe
000002d0: 8290 a03e 06d3 0bbf e828 47be dca4 51be
000002e0: c715 66bf e10a 41be c33c dcbe 441d c6be
000002f0: 10f8 9abd d0c0 333f b08f 4abf 0265 dbbe
00000300: 2937 28bf 7dd4 2b3e 90b7 0d3e 6724 03bf
00000310: 6514 f3be 41d7 49be ec0d a3be 3b2f 613f
00000320: 59b6 483e ffe7 cfbc 973e c0be 49e1 2f3e
00000330: 805c 24be 63d3 12be f985 7c3c c952 adbe
00000340: c42c b4bd 5460 abbe f80f d13e 7ff8 663f
00000350: 32c2 2e3e d394 093f fb5b dc3e 68d7 233d
00000360: c4b7 183f 4e15 b1be 6147 423e 40ba 6d3e
00000370: 563c 873f a53e 4f3e c2fe d13d e930 1b3f
00000380: db6c 30be a118 3abf 2969 32be d064 0cbd
00000390: 0120 02bf 7cf7 4cbf ff7f 09be fd52 033e
000003a0: 6638 0c3f a85b d33e dd7d c8be bafa a6bd
000003b0: c536 27be ae6e 1dbf 0223 29bf f987 65bd
000003c0: e722 c0be 544e 06bf e58f 893c 5625 d1be
000003d0: 29b9 993e b5f6 12be a4d3 1a3e 1124 b9be
000003e0: 6db6 2fbe bf8a adbb 6681 01bf fb95 a1be
000003f0: af4e fcbd 74d9 913f 2a88 753e eed4 093f
-0.68290174 0.33467996 -0.26001284 0.5413943 -0.2777424 -0.20121793 0.41448382 0.6167852
-0.19352694 -0.5746855 0.8276111 0.22504245 -0.72235286 -0.0547715 0.22189493 -0.6251436
-0.24364941 0.14434688 0.20652929 0.6778952 0.08158338 0.45608547 -0.45054644 -0.21505219
0.36137223 -0.55008644 -0.075668514 -0.2572435 0.70734143 0.14716545 0.4472598 0.2333764
0.31888926 -0.1150347 0.24197307 0.43064523 -0.65932626 0.07725446 0.047561157 0.13654302
-0.3277 0.10339436 -0.36845645 0.7053915 0.26543126 0.21352789 -0.19616158 -0.16409259
0.071134225 -0.9225323 -0.16562682 0.378136 -0.56484383 0.30853403 0.39012223 -0.16987519
0.31480426 -0.29335278 -1.011309 -0.39734942 -0.26890063 -0.6004576 -0.12633774 -0.09949377
-0.44024402 -0.35924062 -0.3807087 -0.637433 -0.10290876 -0.2713396 -0.43959686 -0.13606876
0.35728297 0.7059997 0.16236283 0.25121272 -0.4722833 -0.44133043 0.5350891 -0.36466935
-0.39385444 -0.40719923 -0.5780405 0.13990113 0.3036502 -0.94055885 -0.25211677 0.26690057
-0.7773313 -0.28442398 -0.5787621 0.08610372 -0.19599469 -0.1334492 -1.0622838 -0.1819011
0.20994863 0.032364808 0.5479428 0.3452292 -0.6656756 -0.35542658 -0.66166425 0.5941598
0.09085232 -0.29109627 -0.9749805 -0.23693661 0.20024554 0.72116995 -0.11766658 0.34808296
-0.8531263 -0.19298169 0.4427518 0.24028152 0.29959473 -0.15917192 0.3584684 -0.25268677
0.03239062 0.7433367 0.13597013 0.31269756 -0.58075565 0.17793396 -0.47363788 -0.7865544
-0.34867075 -0.5416592 -0.23842752 0.34963185 -0.43940297 -0.24450493 0.5027384 -0.34059474
0.42279306 -0.22995341 0.32724372 -0.48776612 0.11827369 0.16844672 0.5361497 0.5410991
0.10714125 -0.20967951 0.08411765 0.3821676 0.6381013 0.06435909 -0.35210165 -0.20021775
-0.39902243 -0.21309076 0.12219417 -0.2848863 -0.32485953 0.20094573 0.0013413429 0.49432805
0.60152227 -0.3976097 -0.3222926 0.5444971 -0.27493897 0.6785559 -0.7223849 -0.25652918
-0.034012575 0.7425017 0.13286798 0.13004988 0.029562239 -0.35102433 -0.3523312 -0.9304817
-0.215628 0.51299685 -0.37181792 -0.2778479 0.3136025 -0.5461887 -0.19449198 -0.20473045
-0.8987698 -0.18851806 -0.43015108 -0.38694203 -0.075668454 0.70216084 -0.791255 -0.428505
-0.6570917 0.16780277 0.13839555 -0.5122742 -0.47476497 -0.19711019 -0.3184656 0.8796269
0.1960081 -0.025379179 -0.37547752 0.17175783 -0.16050911 -0.1433845 0.015412801 -0.33852223
-0.08797601 -0.3347193 0.40832496 0.90222925 0.17066267 0.5374271 0.43038926 0.04000035
0.59655404 -0.34586567 0.18972541 0.2321558 1.0565288 0.2023874 0.10253669 0.60621506
-0.17229025 -0.7269383 -0.17422928 -0.03427583 -0.50830084 -0.8006513 -0.13427733 0.12824626
0.5477356 0.41280866 -0.39158526 -0.08153291 -0.16329487 -0.6149701 -0.6606904 -0.056037877
-0.37526628 -0.5246327 0.016792247 -0.40848798 0.30024078 -0.14351924 0.15119797 -0.3616033
-0.17159434 -0.005296081 -0.5058807 -0.3155974 -0.12319695 1.1394486 0.23977724 0.5384053

linear1.bias f4 [256]
00000000: 7c7b 853e 5df7 13bf a14c abbe 7ae0 983e
00000010: 0b38 e23e 90bc 5abe d1fd aa3e 34f8 fbbe
00000020: e137 433e 023d 063d b5a0 c3be 40cb edbe
00000030: 1f6f be3d f6e2 973e 745c 90be e130 80be
00000040: cc73 c6be c3c4 98be 31c6 03bf 02a1 f3be
00000050: b7c8 9d3e e366 cf3c a3c8 a43d ae1b 8d3e
00000060: 1005 9abd 363b 083b ce94 7dbe b631 d4be
00000070: 7973 563e e163 ebbe 8492 1bbe 72c1 72be
00000080: 66b3 afbe b3da cdbe 4ae4 75bd 6cfd bcbd
00000090: 9c0e 163e c8a3 84be c574 c6be 8525 6d3e
000000a0: 71d2 5d3e f81d 773e fb0e c5be ba70 0bbf
000000b0: 05e8 dcbe 96fd de3e 047e e4bc 4b0d 95be
000000c0: d2ae 41be 03f9 f13e fd8d 2bbe 6e72 fdbe
000000d0: 8e1f d7be 3d85 53be ea3e 27bf 9da5 e1be
000000e0: 4b76 67bd c919 61be a59f d6bb 1915 12bf
000000f0: e407 ddbe 5c26 dc3e 43cd 8f3e 1333 a4be
00000100: 5364 0b3f 0f4a 3d3d 2bd6 ea3c 3e8d 913e
00000110: 7c8e 393e e93e 00be 63d5 953e e527 003f
00000120: 5795 013e 8b5d b93e c91a 053f d956 273d
00000130: c737 c8be 6cff 6cbe 2dd8 423e 45a7 d4be
00000140: 1984 d13d 5e84 4dbc 5009 833e 2b6a 553e
00000150: 74c6 64be ece9 983e 23da aa3e f610 b83e
00000160: 14d4 43be 57c6 923d 16db 9b3e 5a00 2d3e
00000170: 3f40 d33e 1906 cfbe 5a56 ee3e e3ee 97bd
00000180: 6894 093e 7f19 1f3e fbcf 403e 6f3d a2be
00000190: 44cb 613e aedc f83e 89cd 3fbe 806a 083f
000001a0: a7c2 203c 0026 853e 333a 843e 7227 803d
000001b0: 8794 483e 4646 53be fd01 a33e b73d d4bd
000001c0: 5938 d53e f3c3 5d3d fb14 943d 4ea7 06be
000001d0: b1ad 93be 8442 1bbe e04c a73e be80 b23d
000001e0: 86ed d53e f8eb 04bf 6570 22bd 0291 0f3e
000001f0: 2516 68be b19b ad3c ec05 25bf 9352 a83d
00000200: 35a6 033e da2b 26be 05db 2f3e 970e efbe
00000210: 884f 1abf b4b7 703d ba0a b4bc 6710 1abe
00000220: c18c 81be a4e1 92be 91c7 27bf 57e3 b0bd
00000230: 5b81 8fbe 1ded c1be f6f3 15bf 494d 823e
00000240: 28a8 c33d 935a bc3c d983 c83e 1d8e 91be
00000250: ed05 c1be a48b 9a3e 085c 033f 471c a8be
00000260: d955 ddbe 3b25 1cbe d1e7 a3bd 3426 133e
00000270: 199e 833e b332 ca3e 771a 23bd 8858 b53e
00000280: 00be 11bf 5d46 dc3e 1a5e ca3e 2166 d7be
00000290: 49f6 b9be 9f24 b9be 7984 d63d 9765 783e
000002a0: 15d1 bc3c 7c5d 693e 2f8b 553e a3a0 45be
000002b0: aa66 e0bb 081d 9bbd 6086 debc 54d5 d8be
000002c0: 032b 86be 8ad8 82bd 06d2 2b3e 774f 9d3c
000002d0: 4747 9a3e 8ad2 a33e f534 93bd f27d 4bbe
000002e0: d3f2 1e3e 97b2 7ebe 3a7c dcbe 2f86 50be
000002f0: ea02 cfbe 35a4 f03e 5f63 963c fef1 703e
00000300: 47eb 663e 8964 44bf 2323 863e b2c5 82be
00000310: 2ff3 8b3e 2ff8 a63d e5c4 f63d 835e 0b3e
00000320: d7bd c8be ca4c 96be a4b2 913e a7e6 e43c
00000330: 52bd b3bc 5fc9 f43d e104 9539 bdd7 31be
00000340: 2f28 e33d 076f f8be 16de 90be b64d 173e
00000350: 419d 843e 19ec 183e fd4a 1e3e 4c01 af3e
00000360: a001 29be 9f81 76bd 145a f7be f15b 4b3d
00000370: e4f3 9ebc a212 d23c a7eb ba3e fa76 6f3e
00000380: 6af2 bbbd 8697 503e 45f5 79be 4b7c e03d
00000390: 1cd9 bfbe 7a59 083f bfa0 44be 6c7a a2bd
000003a0: 6b10 813e 1a20 1b3d cfe7 3b3e 34ef 013e
000003b0: ee5c 953e 2225 b93e 9aea 98bd 1461 50be
000003c0: cd5b 7cbe bac8 1fbf f18b 133e f923 99be
000003d0: f213 d8bd b903 70be c5e8 d6be c582 e5bd
000003e0: 2586 8e3e 6a96 e43e b98d 183e 1944 933e
000003f0: 8fbe a5be 38ee 59bd ac28 b3bd 7fc7 b8be
0.26070774 -0.5779932 -0.334569 0.29858762 0.44183382 -0.21360993 0.33396772 -0.492128
0.19064285 0.032773025 -0.38208547 -0.4644413 0.092985384 0.29665345 -0.28195536 -0.25037292
-0.3876022 -0.29837617 -0.5147429 -0.47583777 0.30817196 0.025317615 0.08046081 0.2756018
-0.07520497 0.0020787246 -0.24763796 -0.41444176 0.20942487 -0.4597464 -0.1519261 -0.23706606
-0.34316558 -0.40205917 -0.060032167 -0.09228024 0.1465401 -0.25906205 -0.38760963 0.23158844
0.21662308 0.24132526 -0.38487992 -0.5446888 -0.43145767 0.43552846 -0.02789212 -0.29111704
-0.18914345 0.47260293 -0.16753383 -0.49501365 -0.42016262 -0.20656295 -0.65330374 -0.44071665
-0.056509297 -0.21982493 -0.006549793 -0.5706344 -0.43170083 0.42998016 0.2808629 -0.32070217
0.5444996 0.046213206 0.028666576 0.28428072 0.1812076 -0.12523998 0.29264364 0.50060874
0.12654625 0.3620418 0.51993996 0.04085431 -0.39105055 -0.2314431 0.19027777 -0.41533867
0.10230274 -0.012543766 0.25593042 0.20841281 -0.22341329 0.29865968 0.3336955 0.3595044
-0.1912387 0.071667366 0.30440587 0.16894665 0.41259953 -0.4043434 0.46550256 -0.07418611
0.13435519 0.1553707 0.18829338 -0.31687495 0.22050196 0.48605865 -0.18730749 0.53287506
0.009812034 0.26005554 0.25825652 0.062575236 0.19587909 -0.20632276 0.31837454 -0.10363334
0.41644552 0.05414195 0.07230564 -0.13149759 -0.28843454 -0.15162092 0.32675838 0.08715962
0.41782779 -0.5192256 -0.03965797 0.1402016 -0.22664697 0.021192404 -0.6446216 0.08218875
0.12856372 -0.16227666 0.17173393 -0.4669082 -0.60277605 0.058768943 -0.021977771 -0.1504532
-0.253027 -0.28687775 -0.6553889 -0.08637112 -0.28028378 -0.37876216 -0.5857538 0.2544959
0.09553558 0.022992408 0.39163092 -0.28428736 -0.37699834 0.30184662 0.51312304 -0.32834074
-0.4322956 -0.15248577 -0.080032 0.14370042 0.25706556 0.39491805 -0.03982016 0.35419106
-0.5693054 0.43022433 0.3952492 -0.42070106 -0.36320713 -0.36160752 0.10474486 0.24257503
0.023048917 0.22789568 0.20853876 -0.1929956 -0.006848176 -0.07573897 -0.027163684 -0.42350256
-0.2620469 -0.06388958 0.16779336 0.01920293 0.30132505 0.31996566 -0.07187835 -0.19872263
0.15522318 -0.24872814 -0.43063527 -0.20363687 -0.4043191 0.4700028 0.01835793 0.23529813
0.22550689 -0.76715904 0.26198682 -0.25541455 0.27333972 0.08152806 0.120492734 0.13610272
-0.39207336 -0.2935546 0.28456604 0.027942015 -0.02194086 0.11952471 0.0002842313 -0.17367454
0.11091649 -0.48522207 -0.28294438 0.14775738 0.25901225 0.14933814 0.15458293 0.34180677
-0.16504526 -0.06018221 -0.48310912 0.04964823 -0.019403405 0.02564365 0.36507913 0.2338523
-0.09177096 0.20370302 -0.24409969 0.10961207 -0.3747033 0.5326153 -0.19201945 -0.07933506
0.25207838 0.03787241 0.18350147 0.12688905 0.29172462 0.36161143 -0.07466622 -0.20349532
-0.24644394 -0.6241566 0.14408852 -0.29910257 -0.10550679 -0.2343892 -0.41974464 -0.11206583
0.2783672 0.44646007 0.14897813 0.28762892 -0.32371947 -0.0532057 -0.08747992 -0.36089703

linear2.weight f4 [256, 256]
00000000: d63e 13bd a708 99be 1b54 8ebb d6de 8bbe
00000010: 9695 033d f704 c6bc 7cf5 6e3d 37b3 92be
00000020: b63d 83bd 18d6 0abf 7c58 8fbd 5dc6 523c
00000030: c824 19be 29aa aa3d 7410 99bd 40b6 71be
00000040: 878a 02be 9e74 f23d f9e4 b4bc 0646 cebd
00000050: fa8a e9be 6784 3bbe 1416 6fbe efc4 fbbd
00000060: ec22 eb3c 3db2 bfbd 6a25 66bc 3b23 763d
00000070: 8e0d 9bbc 3735 27be 2bda 9bbb 5f0f 39be
00000080: 6a07 0e3d dde1 04be 8c50 46be ae43 76bd
00000090: 6eec 3c3d e6aa b4be a296 85bd 8bf5 34bd
000000a0: c501 53bd 1358 6b3d ab79 6fbd 5e06 b73d
000000b0: 5cd8 923d 4627 a1bd 38d7 b63d 769f 5dbd
000000c0: 8d18 ce3d a8e1 473d 9cf5 fcbd 23df f9bc
000000d0: a0a1 1a3b 8c38 4d3d 2496 453d b12e b7bd
000000e0: a188 cebe 042b 0bbe e6a0 87be 4c72 0bbe
000000f0: e6d0 87be feac 51be 4aec debe c3b8 92bc
00000100: a8e6 0dbe 4da6 15be f21d acbe 8f93 e8bb
00000110: 2ead 1d3d 705b b8bd bc27 6e3d 5cd3 683c
00000120: bc48 d43d a862 98bc 839e 523d b93a 9cbe
00000130: 0c5a 65bd c8fc f4bd 1820 09be 3e52 ce3c
00000140: 4631 86bc 243b 353d 98a4 1bbc fe00 a9bc
00000150: d485 21bf 3dc7 603c ac4b c43c e4ba 153d
00000160: 914e 72bd c379 ed3c 4931 60bd b35f 873d
00000170: 3139 5e3d 61e1 02be 7b1d 94bc 559e 82bb
00000180: cbcd 533d 7426 77be 6519 b8bd 1cbc 56bd
00000190: 689d 0fbe 75b3 c1be 128d 08bd 4f4f b5bc
000001a0: 98c2 26be 98a0 013d 5f21 73be 33bc 1c3d
000001b0: d37f 60be 517e 3abf 7044 f4bd 37d6 9dbd
000001c0: aa8a 50bd d491 f1bc 837d a9be 8b1b 533d
000001d0: e7aa 553c 45c3 563d 663e 32bd 38eb d6bc
000001e0: fffe e1bc 5cd2 71bd 81da 70be 81f8 3e3c
000001f0: b048 20bf 9fc3 ca3c 5b8d c1bc 110c 073e
00000200: 3f08 dabc 676d 933d 0e0f b03c 4694 85bd
00000210: a0a3 14bd 4c27 babe a4c6 653b 112b 9b3d
00000220: 9b5c 11bb ca45 73be 1ba7 5fbd a7e5 133d
00000230: f138 4c3c 5f52 733d e974 bebd 8e00 9abd
00000240: 9efc f83c 23c6 10ba 3ebb 523c c992 a8bd
00000250: 7343 613d 9599 31be 8eae e83c 0847 32be
00000260: 0826 6dbd 3f97 8dbb bf46 72bc 7c92 213d
00000270: 3e21 40bb e15f 353d 07ef b0be 0d66 653c
00000280: cd77 b9bd 65d4 193d 8cc5 873d b475 f0bc
00000290: 1255 cc3d 28af e1bd a541 b73d 2e4e b2bc
000002a0: 1f1e 6f3d 5e63 473d d15c 9e3d 687e 133c
000002b0: 40e1 643d 6b3d 97be bc39 66bc 2ff1 87bc
000002c0: 5f4a c5bd e8dc b6be a856 8cbc f7c6 4bbe
000002d0: b3a9 703c 86c5 a03c 4240 21bf da77 18be
000002e0: 1094 e5bd 833e bebb c2c3 2abe fa8f cbbd
000002f0: c37b 81bd 3906 83bd 6984 2c3e f919 aabd
00000300: bd3c 6a3d f84e 16bb 36c0 2b3d cf2f 82bd
00000310: 6359 d23d 99eb 0abd 1d34 463e af91 9b3c
00000320: 73c4 a43b 5662 1dbd 9f2e 8e3b ff54 20bc
00000330: 7cdf 0ebe 385a 2ebe 1e9a 56be 1dcb 5d3d
00000340: d0c2 88be 2218 613d 8933 2d3d b4fe d3be
00000350: 351f e6bd 187b a0be 5215 4dbd 9d3c b33d
00000360: 0f34 77be 0e09 6c3d beb7 b33d 187e d93d
00000370: 67aa b43d 195b 71be 6dde 8e3c c68d 72bd
00000380: 2985 ff3b 5d94 f1bd 627d 95bd 142c febb
00000390: b7d1 f33d 0df6 a1be 96d6 cd3d 2484 c7be
000003a0: 4e17 0fbd 0a78 61bd 9bed 423d 7870 1e3d
000003b0: d2f1 29be 81c0 863d deec 073c 77e6 a4be
000003c0: 6fae 493d 6198 0ebe 8a7c 763d 2b37 c2bd
000003d0: ce69 be3b 7241 50be 3843 673d 9cc9 423d
000003e0: 31c3 68bd 6a81 913d 6255 a6bd 9911 93be
000003f0: 6cc1 9cbe 1222 8f3d 873f 723c 800e d6bb
-0.035948597 -0.29889414 -0.0043435222 -0.27318448 0.03212508 -0.02417229 0.05833958 -0.28652355
-0.06408255 -0.5423293 -0.06999299 0.012864676 -0.14955437 0.08333237 -0.07473841 -0.23604679
-0.12748156 0.11838649 -0.022081839 -0.1007195 -0.45613843 -0.18312226 -0.23348266 -0.122934215
0.028703175 -0.09360168 -0.014047006 0.060092192 -0.018927362 -0.16328894 -0.0047562323 -0.1807227
0.03467504 -0.12976785 -0.19366664 -0.060123138 0.046123914 -0.35286635 -0.065228716 -0.04417948
-0.05151536 0.05745704 -0.05846564 0.08936761 0.071701735 -0.07868819 0.089277685 -0.054107152
0.100632764 0.048799187 -0.12351534 -0.030501908 0.002359487 0.050102755 0.04823889 -0.089444526
-0.40338615 -0.13590628 -0.26489943 -0.1361782 -0.26526564 -0.20476148 -0.4353965 -0.017910367
-0.1385752 -0.1461422 -0.33616596 -0.0070976685 0.038495235 -0.09001815 0.058143362 0.014210548
0.103654355 -0.01860173 0.0514207 -0.30513552 -0.05599408 -0.11962277 -0.13391149 0.0251857
-0.016380917 0.044245854 -0.009499691 -0.020630356 -0.6309483 0.013719377 0.023961864 0.036555186
-0.059156958 0.028988725 -0.054734502 0.0661005 0.05425376 -0.12781288 -0.018080464 -0.00398616
0.05170993 -0.24135762 -0.089892186 -0.05242549 -0.1402489 -0.37832227 -0.03333766 -0.022132544
-0.16285169 0.031647295 -0.23743199 0.03826542 -0.21923761 -0.72848994 -0.11927116 -0.07706874
-0.05091349 -0.029488482 -0.3310357 0.05153994 0.013041235 0.052432317 -0.04351654 -0.026235208
-0.027587412 -0.059038505 -0.23520853 0.011655928 -0.6261091 0.024751483 -0.023626974 0.13188197
-0.02661526 0.07198601 0.021491554 -0.065224215 -0.036288857 -0.36358106 0.0035061026 0.07576574
-0.0022180441 -0.23757091 -0.054602724 0.036107685 0.012464748 0.059404727 -0.092996426 -0.07519637
0.030393895 -0.0005522689 0.012862025 -0.08231122 0.054995965 -0.17343743 0.028403547 -0.17409909
-0.057897598 -0.0043210085 -0.014787375 0.03944634 -0.002931669 0.04428089 -0.34557363 0.014001382
-0.09056053 0.03755607 0.06629476 -0.029353 0.099771634 -0.110197365 0.089480676 -0.021765795
0.058378335 0.04867875 0.07732547 0.009002306 0.055878878 -0.29539046 -0.014051851 -0.016594497
-0.09633326 -0.35715413 -0.017131165 -0.19900118 0.014688897 0.019625437 -0.62988675 -0.1488947
-0.11209881 -0.005805792 -0.16676238 -0.09939571 -0.06322434 -0.06397671 0.16847385 -0.08305735
0.05718683 -0.0022935253 0.041931354 -0.06356775 0.102709554 -0.03391609 0.19355817 0.018990366
0.0050283014 -0.03842386 0.0043390538 -0.00978589 -0.1395244 -0.17026603 -0.20957229 0.054148782
-0.2671113 0.054954655 0.042285476 -0.4140526 -0.11236421 -0.31343913 -0.05006916 0.087517954
-0.24140953 0.057625823 0.087752804 0.106197536 0.08821564 -0.23569907 0.017440045 -0.059217237
0.0077978563 -0.11795876 -0.072993055 -0.0077567194 0.11905234 -0.31633034 0.10050695 -0.38968003
-0.034934334 -0.05504612 0.04758988 0.038681477 -0.16596153 0.06579686 0.00829622 -0.3220708
0.04923862 -0.13925315 0.060177363 -0.09483179 0.0058109527 -0.20337465 0.05646059 0.04755555
-0.056826774 0.07104762 -0.08121754 -0.28724363 -0.3061632 0.0698892 0.014785654 -0.0065324903

linear2.bias f4 [256]
00000000: 482a 79bd eec7 063d 54d7 57bd 5434 86bb
00000010: c520 e0bc b9f5 39bd 05d8 f8bc f161 90bd
00000020: 302e bc3c d474 0d3d 7759 61bd edb5 1a3e
00000030: 555b eb3c eee0 03bd fe08 253d 7004 6abd
00000040: 1b8e 6b3d a8fe 573c 4513 ff3c 3721 b03c
00000050: 11ce 1f3d a95d f5bc 652b 88bd a738 323d
00000060: d80d 3d3d cb1b 243d 77e7 983c 5cf0 5ebd
00000070: 4a14 443d 2080 84bd 36fe 79bd 88c2 51bd
00000080: 22af 7b3d 7afb cd3c e751 53bc db29 1e3e
00000090: 648e 5e3d 4401 f53c 7ea7 07bd 80c7 7ebd
000000a0: a34a 97bd 2d18 d73a 2620 55bd cf06 3ebd
000000b0: 7c1d 3ebd cd71 c83c c987 16bd 2efa 3c3d
000000c0: a4b8 3b3d 0f93 36bd 271f 75bd 3295 d439
000000d0: 0025 933d 67d7 863c 19f2 08bd b997 923d
000000e0: f4e4 1d3d 2be0 af3c b72d ddbb 748c edbb
000000f0: 5d5f 8fbd 358e 51bd c93c 46bd d82e adbc
00000100: aa8f f7bb 5b7e e8bb 9b03 86bd 26f0 acbd
00000110: 775a 0d3c 83d0 57bd 60f1 db3d 32c4 60bd
00000120: b83f b83c 2732 34bd f635 3dbd 1cbd 90bd
00000130: 102f 96bc 9e0b 22bd 4693 83bb 3cdf 143d
00000140: b9c2 bcbc 6c1b 233d 76d4 0fbd bd3d bcbc
00000150: 038c af3d 21b5 72bd 279b 4c3c 1037 21bd
00000160: 51fc 1a3c 9534 023c 7372 593c da6a 16bd
00000170: d068 c1bb 2fd5 0f3e edfd ad3c da15 df3d
00000180: de81 fdbb 2990 8f3c 7bd8 e23a 1d4d 57bb
00000190: e98b 4d3d a589 1e3d e85b 09bc 5f94 953d
000001a0: a397 c13d abc9 35bd ac2f d63c f264 c6bb
000001b0: e1ad 873c 79c4 1e3d 1ad4 ea3a 9948 ecba
000001c0: 4312 76bd cd25 ea3d 7f04 233c 880b c03d
000001d0: 25ed b3bc ffd9 ca3a 361d 27bc 7dfb 38bc
000001e0: 6c1d 853c dc48 8f3d af4c 253d 0f33 8b3c
000001f0: 65be 83bc ef3f de3b 6547 04bd 83f4 633d
00000200: a87c ef3c 5d01 a93b 530a f73b 62a9 c73d
00000210: 3d84 1f3d 5440 7abd ea08 51bd ff0f b2bc
00000220: 998e 0f3d 03fc 20bd 2bb7 69bd ad63 333d
00000230: 4edb 95bc 99e1 d6bc b289 29bd 6925 873c
00000240: 17ab a2bc f1f8 e53c f383 81bd 87ad 5c3d
00000250: af96 edbc a099 423c 3104 45bd af85 0c3d
00000260: d06d 71bd f261 95bc 08d8 093c f329 e33c
00000270: 1466 623d 958c d13c ad42 433d ef48 f2bd
00000280: 01f1 7bbd 530c 1abd 8ab6 53bd f076 ac3c
00000290: 5ca3 f8bc 63a6 10bd a47c 17bc f594 163d
000002a0: c0e2 b73d dd0f 013d 1770 733d 8775 80bd
000002b0: fa87 aa3c 4a0c c5bd 230d d93b 6fe2 343d
000002c0: 31bb a3bd bef1 0c3d 462f 54bd a3bb 0abc
000002d0: 710f 8c3d a97b d43c b7be 5bbd e149 71bd
000002e0: 0cee 94bd 7d71 46bc 6719 97bb 01fd 623d
000002f0: 012f 89bd 32d2 7dbd 22f0 7c3c db6d d9bc
00000300: 5e93 02be b202 cebc 5503 4b3b 9023 5b3d
00000310: 65bb 1dbc 8a6d 5dbd c22a ab3d 0045 eb3c
00000320: 92fc c43b 2829 933c 3593 173d 4ebc 7cbb
00000330: 76a7 93bd 1f46 82bd 9aea d0bc ff5c 4d3d
00000340: 02cf 65bd a8b1 c53b de0a 97bc d977 d73c
00000350: 119f 40bb 39c9 2a3c 0178 eabb b622 32bd
00000360: 889a 8fbd e724 91bc 75b3 3a3d 5919 523b
00000370: 9ba0 84bd 4054 11bc 8085 3fbd 2a37 83bc
00000380: 17c9 a2bc be57 423d 43be b6bc 4064 423d
00000390: 9daa 95bc bc62 8ebc 0605 c53c 37e8 24bd
000003a0: 0d25 72bc 4a38 753c 3c47 453d 1d99 5c3d
000003b0: 43a8 6e3d 8715 86bc ae03 093d d5ce 17bd
000003c0: 4c3b a83c 7d33 17bc ea63 88bb c126 6b3d
000003d0: 49a5 90bd 0c10 b2bb fa1f de3c fabc 64bc
000003e0: 607d 40bc d3f6 883d 933d 963c c2e2 9b3d
000003f0: 2c88 653d 86b9 47bd 9674 fcbc 6f72 503c
-0.06083134 0.03290551 -0.052695587 -0.0040955935 -0.027359376 -0.045400355 -0.030376444 -0.07049931
0.022971243 0.034535244 -0.05501696 0.15108462 0.028730074 -0.03219693 0.04029178 -0.05713314
0.05750857 0.013183273 0.031137118 0.021500213 0.03901488 -0.029951887 -0.06648902 0.04351106
0.04615578 0.040065568 0.018665059 -0.054428443 0.04787091 -0.064697504 -0.06103345 -0.05121091
0.061446317 0.025144327 -0.012897945 0.15445654 0.054335013 0.02990783 -0.033118717 -0.062201977
-0.07387283 0.0016410403 -0.052032612 -0.046393212 -0.046414837 0.024468327 -0.03675059 0.046137027
0.045830384 -0.04457384 -0.059844162 0.0004054695 0.071847916 0.016460134 -0.033434007 0.07157845
0.038548425 0.021469196 -0.0067498344 -0.0072494093 -0.07000611 -0.05116101 -0.048397813 -0.0211405
-0.007554968 -0.007095141 -0.065436564 -0.08444242 0.0086275255 -0.052689087 0.10739398 -0.054874606
0.022491321 -0.04399314 -0.04619404 -0.0706732 -0.018332988 -0.03956186 -0.004015359 0.036345705
-0.02304207 0.039821073 -0.035114728 -0.022978658 0.08571627 -0.05925477 0.012488163 -0.039359152
0.009459571 0.007947107 0.013271916 -0.036722995 -0.005902387 0.14046167 0.021239245 0.1089284
-0.0077364286 0.017524796 0.0017306948 -0.003285236 0.050182257 0.038705487 -0.008383729 0.0730369
0.094527505 -0.04438178 0.026145779 -0.006054514 0.016562404 0.03876159 0.0017915994 -0.0018027007
-0.06007601 0.11432991 0.009949802 0.093771994 -0.021963665 0.0015476345 -0.0101998355 -0.011290428
0.016249381 0.06996319 0.040356334 0.01699212 -0.016081998 0.006782524 -0.03229465 0.055653106
0.029234245 0.005157633 0.0075390725 0.09749104 0.03894447 -0.061096504 -0.05103389 -0.021736143
0.0350481 -0.039302837 -0.05705945 0.04379623 -0.01829305 -0.02623062 -0.041391082 0.01649733
-0.019856973 0.028072806 -0.063239954 0.053876426 -0.029002516 0.011877447 -0.0480997 0.034307178
-0.058942616 -0.01823518 0.008413322 0.027729964 0.05527313 0.02557973 0.04767101 -0.11830317
-0.061509136 -0.03760941 -0.051687755 0.021052808 -0.030351333 -0.03531493 -0.009246025 0.03676315
0.08978796 0.03150927 0.05943307 -0.062724166 0.020816792 -0.096214846 0.0066238805 0.044161256
-0.07994688 0.03441023 -0.051802896 -0.008467588 0.06838883 0.025937872 -0.053648677 -0.058908347
-0.07271966 -0.012112019 -0.0046111825 0.055417065 -0.066984184 -0.061968036 0.0154381115 -0.026541641
-0.12751529 -0.02514777 0.0030977328 0.053500712 -0.009627198 -0.054059543 0.08357765 0.028719425
0.006011554 0.01796396 0.037005622 -0.0038564387 -0.07209675 -0.06361031 -0.025502492 0.050137516
-0.05610562 0.006033141 -0.018437799 0.026302265 -0.0029391686 0.010423952 -0.007155419 -0.043490134
-0.07011896 -0.017717792 0.0455813 0.0032058565 -0.064759456 -0.008870184 -0.046758175 -0.016017515
-0.019871278 0.04744696 -0.02230752 0.047458887 -0.018269831 -0.017381065 0.024050247 -0.04026052
-0.014779341 0.014967034 0.048163638 0.053856958 0.058265936 -0.016367687 0.033450775 -0.037062485
0.020536087 -0.009228584 -0.0041623013 0.057410005 -0.07062776 -0.005434042 0.027114857 -0.013961071
-0.011748642 0.06687703 0.018339908 0.0761161 0.056038067 -0.048760913 -0.030817311 0.012722596

mean_linear.weight f4 [1, 256]
00000000: a0f4 31be fa45 543d 910a 22bb f825 243a
00000010: 9419 393b 9432 cebb a7ec 3ebb cbe8 5dbe
00000020: b9c5 c63a a7e5 533e 0774 023c 913b bb3d
00000030: 6b1e ccba 174a b93b 7e50 aabd 7ef6 473b
00000040: 1e70 523d daf8 eb3d 6064 9cba 3e39 f03a
00000050: aef3 e7bd 2aa0 3a3b 1d9a 88bb ddf4 0e3d
00000060: abd3 203c 9b2c f1bd 270c d53b 26c6 7039
00000070: f7cf 0bbe 22f4 453e bc3e 733d ce08 eabb
00000080: e727 c0bd 91bc 5b3d 686f c73d 36cd c43d
00000090: 39ee 51bd c639 4aba 7c0a ec3d a33d 48be
000000a0: 1829 be3b eed4 3dbe 47d0 1cbc f5e0 e138
000000b0: faf1 df3b 3213 1b3e 780c 59bd 3efc 513e
000000c0: 23b5 213c 1b0c 1f3c 530d ba3c 2227 11bb
000000d0: af80 f4bc 80b1 20bb 14a4 fc3d e3dd bf3d
000000e0: 6922 49bd 7525 01be 0276 8a3a 6bc5 08be
000000f0: 0937 2bba 716b 383c 2033 75ba 20f4 b6b8
00000100: b22c 083a 1fbd 21be 59c9 d03a 67bd 2c3b
00000110: a17c 2a39 208a b83d 5912 16be 4c1f 073c
00000120: 8be8 0b39 561d 8c3a d1ba 273e bbde 5ebb
00000130: 134f a83c 7b04 76bc 9d61 09be cfb1 553b
00000140: 370f 403e b7b2 a23b 3db3 f13d c384 3b3d
00000150: 6409 663d 7ea4 3cbe 6d35 d2bd 61d4 aebb
00000160: bc0d b83a 2f37 763d 499e b33d b4a6 7eba
00000170: cfcd 4539 7334 f33c 1d9e 3bbe 8b9a 403d
00000180: 7fad 07bc f849 5f3a bb05 563d f98a 1e39
00000190: 1d45 d7bd 016e 4fb9 284d 423b 3103 78bd
000001a0: 35a1 4cbe 5422 5dbd 5317 efbb 6e44 f0bb
000001b0: 21ee e83b b567 033e 055c bdba eb1c babd
000001c0: 7002 f7b9 52d8 623d a1fd f13b fa60 9fbc
000001d0: f4d3 603b b993 24ba 4fa6 553a 5d8b dc3c
000001e0: 5090 29bb a16e 89bd 5c12 b63a b1f0 bb3d
000001f0: 3634 97bd 25eb f23a 0de5 493e 5849 ca3d
00000200: 6683 b839 dd6f 533a b813 63ba d594 f63d
00000210: d9eb d43d 8afb 35bb 4886 a739 b351 9bbe
00000220: 7ec7 993a 94f4 113b b0aa 163b 0a09 5e3d
00000230: d975 7fbb 96b5 423b bcfb 84b9 cb27 b4b9
00000240: ef47 813e c837 283c f47d 1cbb 61be 4c3e
00000250: b771 a13d ad79 7fbe 6940 9c3e 39d8 34bb
00000260: 3e6c ffbb 2812 e03c d358 0bbc db78 203e
00000270: a8b7 80bd 7d55 c2bb b9d4 1d3e 7452 f73b
00000280: 14e6 deba b2ef 36bc eedb 173e 2c9f df3d
00000290: 8e8c d3bb a2ca 86bc 6090 15bb a160 53bb
000002a0: 2edf 12be d197 11bc 83bb 2d3c a936 46bc
000002b0: 0b68 1d3c 78c4 fe39 ccfb 25bb 616f e43d
000002c0: c487 2ebe cdfd 85be bf69 f83d 236d 9cbd
000002d0: ffc8 a13e d9c7 e93a ce15 dfba a565 6fbd
000002e0: 313a 8c3d 2c4c 7a3b 600e 09be bfe5 413c
000002f0: 2eb8 89bb 5c61 163b f029 e3bd 968a 193d
00000300: 0494 073d 071e c73b 4a31 313b c720 63bc
00000310: ed8b bfbd 39ed 58bd 57fe 16be c920 f1bd
00000320: ad74 0a3b 7fc8 2ebe 0bb0 5f3d 46d8 7abb
00000330: 43b9 26bb 3abc 183e fb18 563e c7ba 073e
00000340: f8e9 9d3a 0eca 2b3a 9975 1abb 366e c3bd
00000350: 72a1 c13e 6ccf 5abe e966 923a 969c 3cbb
00000360: 00e4 bfbb e6f6 7fbd 1841 d239 fe35 70be
00000370: 3e9f 86bb 0ebe 07bb bcad 8f3a 1fac 8bbe
00000380: 4dea e7bd 9396 813e b992 37bd f520 20be
00000390: 6b11 6dbe 48aa fe39 d338 f73d 388e 443d
000003a0: ea9a 09ba 1d5d 3ebb 160b 3ebb 3fe4 ae3d
000003b0: 4e16 17be 6bd9 1a3e c761 c039 e8df 40bd
000003c0: b424 40be 94b1 a4bb f5ea 32bd 70a8 38be
000003d0: d372 9d3e 5760 d3bb e2ca 5bba 5f08 603b
000003e0: f45d a5bd 730f 5bbd 7aaa afbb 422f 303d
000003f0: ca45 00be 48c7 203b d59d 033e 0e16 9bbb
-0.17378473 0.051824547 -0.0024725536 0.00062617613 0.0028244006 -0.0062926505 -0.0029132755 -0.21670835
0.0015165127 0.20693074 0.007962233 0.09142221 -0.001557303 0.005654584 -0.08316134 0.003051191
0.051376455 0.11522074 -0.001193177 0.0018327606 -0.11325775 0.0028476813 -0.0041687624 0.03490149
0.009816091 -0.11776086 0.006501693 0.00022962 -0.13653551 0.1933141 0.059386 -0.007142163
-0.09382611 0.053646628 0.09738046 0.096094534 -0.051252577 -0.00077142974 0.11525437 -0.19554763
0.0058032386 -0.18538257 -0.009571142 0.000107707376 0.006834266 0.15144041 -0.052990407 0.20506379
0.0098698465 0.009707476 0.022711432 -0.002214857 -0.029846517 -0.002451986 0.12335983 0.093684934
-0.04910508 -0.12611945 0.0010563734 -0.13356559 -0.0006531333 0.011256085 -0.00093536265 -8.723908e-05
0.00051946484 -0.157948 0.0015929147 0.002635801 0.00016258891 0.0901072 -0.14655437 0.008247208
0.00013342702 0.0010689895 0.16379859 -0.003400727 0.020545518 -0.015015717 -0.13416143 0.0032607203
0.18755804 0.004965152 0.11801765 0.04578091 0.0561613 -0.18422124 -0.102640964 -0.005335376
0.0014042179 0.06011122 0.08770425 -0.0009714172 0.00018864054 0.029688096 -0.18322034 0.047022384
-0.008281111 0.0008517797 0.05225156 0.00015119826 -0.10511229 -0.00019782038 0.002964804 -0.06054992
-0.1998337 -0.053987816 -0.0072964816 -0.007332376 0.0071084653 0.1283253 -0.001444698 -0.09087547
-0.00047113327 0.05538208 0.0073849712 -0.019455422 0.0034306021 -0.0006278116 0.0008150087 0.026921922
-0.002587337 -0.06710554 0.001389097 0.091767676 -0.07383005 0.0018533213 0.19716282 0.098772705
0.00035193114 0.000806568 -0.0008662301 0.12040106 0.10396547 -0.0027768337 0.0003195277 -0.3033577
0.0011732427 0.0022271024 0.0022989921 0.05420784 -0.0038980155 0.0029710284 -0.0002536456 -0.00034361923
0.25250193 0.010267206 -0.0023878785 0.19994499 0.078830175 -0.2494876 0.3051789 -0.00275947
-0.007794886 0.027352408 -0.008505064 0.15671103 -0.0628503 -0.005930601 0.15413179 0.007547671
-0.0017005824 -0.011165546 0.1482999 0.109190315 -0.0064559644 -0.016454045 -0.002282165 -0.003225364
-0.14342949 -0.0088862935 0.010603788 -0.012097993 0.009607325 0.00048593036 -0.0025327085 0.11154056
-0.17043978 -0.26170197 0.121295445 -0.07638004 0.3159866 0.0017836049 -0.0017020048 -0.058446545
0.06847037 0.0038192375 -0.1338439 0.011834561 -0.004202864 0.0022946214 -0.11091983 0.03748568
0.033100143 0.0060765776 0.0027037435 -0.013862795 -0.093528606 -0.05296061 -0.1474546 -0.117738314
0.0021126673 -0.1706867 0.054611247 -0.0038275882 -0.0025440014 0.14915553 0.20907967 0.13254844
0.0012047878 0.0006553241 -0.0023568629 -0.095425054 0.37818485 -0.21368188 0.0011169586 -0.0028779856
-0.005856037 -0.06249132 0.0004010282 -0.23458096 -0.0041083386 -0.0020712647 0.0010961811 -0.27279755
-0.11323986 0.25310192 -0.04481766 -0.15637572 -0.23151176 0.00048573525 0.12071385 0.047987193
-0.0005249219 -0.00290472 -0.0028998307 0.08539628 -0.14754602 0.15122001 0.00036693944 -0.047088534
-0.18764001 -0.005026052 -0.043681104 -0.18033004 0.30751666 -0.0064506936 -0.0008384419 0.0034184677
-0.08074561 -0.05348153 -0.0053608986 0.04301382 -0.12526622 0.0024532843 0.12853177 -0.0047328537

log_std_linear.weight f4 [1, 256]
00000000: 4968 b0bd 2eb4 9b3c f280 133b 960e f939
00000010: 88aa 8abb 001d a8bb 0a14 e03a 131c 83bd
00000020: 20f1 e4ba bc8c 1fbd dcae f1bb 934a 15bb
00000030: d410 4c3a e26a 50bc 4dbd b03b 10b2 a4bc
00000040: 1652 f2bc 6e9f 25bd d88b cbbb 1d24 cc3a
00000050: ec35 7d3d 868f d93a a1e5 a2bc 205e 84bd
00000060: 1e2c 88bc 0b7b ba3c b5f7 38bc 298f b5b9
00000070: a375 8b3d c340 0c3e d744 073e 41f1 c13b
00000080: c7d9 963c efa5 0dbe 233d e7bc ba38 ffbc
00000090: 4e7d 1abc 2a03 753b c54e f0bc c98b 08be
000000a0: 80c2 06bc 77b1 ac3c bf9d aa3b 3dd8 8cb9
000000b0: 18ad 973b 7cbb 14bc ed8e 313d 4a2d 71bc
000000c0: 1123 f7bb c3ec b2bb 3b47 9c3c ca48 aeba
000000d0: 8b82 af3d 8786 8337 0d7e 15bd 936a 683b
000000e0: a748 a13d e641 3ebd 0f18 54ba 9407 573e
000000f0: 018a ab3b 38f1 29bd ff78 83ba b83a c339
00000100: 6f2d 18ba 8a4b 0dbe 5eef 153b 378b 503b
00000110: fe44 6f3a 5bd5 1a3d 7808 8a3d b0e8 29bc
00000120: b1aa 26bc 4879 10bb 83b4 d33d 9224 44ba
00000130: 7206 a53d 82fd 29bc 96e2 ed3c ad71 e4bb
00000140: 53c1 2d3d 794b ec3a b8ba 573d c5cd e9bd
00000150: 46c1 773a 05f3 de3b 84b7 c0bc 57cd fa3b
00000160: ae27 b6ba 6c70 68bc cd5f 4fbd a18e b7bb
00000170: 88dc 453c c256 1fbd c5e4 adbd 1762 463a
00000180: 30ba 0a3b e73b aab9 a1ca 69bc 86e0 9eba
00000190: c092 64bd cb9f 8e3a 3105 e6b9 6663 87bd
000001a0: acd5 2dbd 3713 8abd 0326 ec3b f6df 21bc
000001b0: dd5b 0ebc 0b3c d23d 4955 8439 9c18 90bd
000001c0: 6f0b 983b 950f 07bc a836 f8bc b33d a03d
000001d0: 0026 b0bb cb5f 0ebb 9950 2d3b f904 c4bd
000001e0: dcd2 72ba 9a37 b0bd 3af0 09bb f211 433d
000001f0: 2459 a1bc fb71 66ba b688 8d3c bf07 97bd
00000200: 51ab 1abb 24bb 6fb9 d866 58bd 37f5 c73c
00000210: 6df0 cebc be80 b6bc 2cc4 e43a 005f fd3b
00000220: d3af 0bbb 35e7 3f3c 2931 22bd b320 bebd
00000230: 2d1e f6bc 0638 10bb 077b ad3a 4dd6 f3b6
00000240: c921 f7bd 3602 aebb 9f4a feba 00b8 f53c
00000250: 973e e23d 4d5a 4e3d 1689 ccbd c82e c23b
00000260: c5f7 40bc 3815 6fbd 19a9 ec3b 4b93 b43d
00000270: 147f b33c ed1a 07bc 5547 6dbb e9cf 24bd
00000280: 303f 35b9 65ea 06bc edc3 abbd 0031 943c
00000290: 9725 88bb 639f 96bb 0afd 9eba 61cd a7bd
000002a0: 64ef 0fbd e5e1 1c3b 023e e6bb 0aae 84bc
000002b0: 19d3 4dbb eb8f cabc 635f 503b 6fd0 2abc
000002c0: 9cc9 b4bb d2a0 35be 7e84 443d a780 0ebd
000002d0: 1bd9 8bbd 4bf5 ee3a 71f7 ab3a 11fb d4bb
000002e0: c483 a33d c60f 643c 071e 713c 28d1 d2bc
000002f0: f62d b3bb 8a9c f43b 79d2 b63b 695a 803d
00000300: e0e2 92bc cbf8 38bc 77bb 42ba ae5f 88bd
00000310: f5ea 1cbe fcf4 403c c481 8abb e2f0 9cbc
00000320: 39f8 47bb 9e41 94bc ed21 563d 6a86 02bb
00000330: aacd 11bc 529e 3b3d 83b8 863d 6e00 61bb
00000340: 44d4 83ba adf7 d8ba 9098 54bb 34c9 05bd
00000350: ab5f 643e 6e76 ce3d d538 0abc 6cb5 89ba
00000360: c4ae b53b bf77 7ebd c4d6 91ba 20ba 97bc
00000370: c6b9 aa3b 6efb 0a3b 170e c7ba 8d90 853d
00000380: 9ac6 253d 8dc7 4a3c 1c75 2d3c e58b 753d
00000390: 4169 b0bd f091 223b 2688 d2bc ef17 3abc
000003a0: 7e2d 053b fffe c4ba d62d 18bb a243 9ebc
000003b0: 631f 7c3d 718c e63b a798 05bb 32af a6bc
000003c0: cf00 0abd d9c6 633b bdda 86bd a068 af3d
000003d0: 06b9 7d3b 6d1a ebbb 6268 80bb 1158 193b
000003e0: f224 e13a f894 94bd 8307 9bbb e2f0 04bd
000003f0: ecc4 3cbd 3135 82ba 34f3 5c3d 9c8e d6bb
-0.08613641 0.019006815 0.0022507277 0.00047503848 -0.0042317547 -0.00513041 0.0017095816 -0.06401839
-0.001746688 -0.038952574 -0.007375581 -0.0022780045 0.000778449 -0.012720795 0.00539366 -0.020104438
-0.029580157 -0.040435247 -0.006211739 0.0015574727 0.061819002 0.001659856 -0.019884886 -0.064632654
-0.0166226 0.02276375 -0.011289527 -0.00034629673 0.06809547 0.1369658 0.13209854 0.0059186523
0.018414391 -0.1383283 -0.028227394 -0.031154979 -0.009429289 0.003738592 -0.029334435 -0.13334574
-0.008225083 0.021080716 0.005206793 -0.0002686399 0.0046287887 -0.009077903 0.043349195 -0.01472027
-0.007542022 -0.005460353 0.019076934 -0.0013296839 0.08569821 1.5679061e-05 -0.036497165 0.0035463914
0.078751855 -0.046449564 -0.0008090743 0.20998985 0.005234957 -0.04148981 -0.0010030566 0.00037237047
-0.000580511 -0.13798347 0.002287827 0.003182126 0.0009127407 0.037801128 0.067398965 -0.010370418
-0.010172532 -0.0022044946 0.10337164 -0.0007482256 0.0805787 -0.010375382 0.029038709 -0.006971559
0.042420696 0.0018027864 0.052668303 -0.114162005 0.0009451102 0.0068038725 -0.023525007 0.007653873
-0.0013897324 -0.01418696 -0.050628472 -0.0056017195 0.0120765045 -0.038901098 -0.084909 0.0007567717
0.0021168105 -0.00032469557 -0.014269502 -0.0012121357 -0.055804014 0.0010881362 -0.00043872886 -0.066107556
-0.0424401 -0.06741946 0.00720668 -0.009880057 -0.008688894 0.102653585 0.00025240544 -0.07035944
0.004640035 -0.008243461 -0.0302995 0.07824268 -0.0053756237 -0.0021724578 0.0026445745 -0.09571261
-0.0009262988 -0.08604355 -0.0021047727 0.047624536 -0.019695826 -0.0008790788 0.017277103 -0.07374524
-0.0023600648 -0.00022862531 -0.052832454 0.02440892 -0.025261128 -0.022278186 0.0017453483 0.007732272
-0.0021314516 0.011712839 -0.039597664 -0.09283581 -0.030043686 -0.0022006049 0.0013235518 -7.2669122e-06
-0.12066991 -0.005310322 -0.0019400901 0.029994965 0.11047094 0.050379086 -0.099870846 0.005925987
-0.011777823 -0.058369845 0.0072223064 0.088171564 0.021911182 -0.008246166 -0.0036205847 -0.04023734
-0.00017285044 -0.008234595 -0.08386979 0.018089771 -0.0041548717 -0.004596637 -0.0012129855 -0.0819347
-0.03514041 0.0023938355 -0.007026435 -0.01619627 -0.0031406342 -0.024726829 0.0031795136 -0.010425671
-0.005517198 -0.1773713 0.047977917 -0.03479066 -0.06828519 0.0018231062 0.0013120008 -0.006499656
0.07984117 0.013919776 0.014716632 -0.0257345 -0.0054681255 0.00746495 0.0055792895 0.06267244
-0.017930448 -0.011289786 -0.0007428447 -0.066588745 -0.15324004 0.011777159 -0.004226895 -0.01915783
-0.0030512942 -0.018097695 0.052278448 -0.0019916543 -0.008899132 0.045805283 0.065781616 -0.0034332532
-0.0010057767 -0.0016553305 -0.0032439567 -0.032662585 0.2230212 0.100811824 -0.008436401 -0.0010506338
0.0055445153 -0.062125918 -0.0011126627 -0.018521369 0.005210134 0.0021206993 -0.0015186694 0.065217115
0.040472604 0.012376678 0.010587003 0.059947867 -0.086138256 0.0024806224 -0.025699686 -0.011358245
0.0020321305 -0.0015029608 -0.002322068 -0.01931936 0.06155337 0.007035785 -0.0020385177 -0.020347212
-0.033692177 0.0034755974 -0.0658469 0.085648775 0.003871502 -0.007174781 -0.0039186934 0.002339844
0.0017177148 -0.07254976 -0.00473112 -0.032456286 -0.046086237 -0.0009934065 0.053942874 -0.006547762
