weight/updated_ppo_weight_54000.pth (torch_old, 2895 bytes, 6 tensors)

critic.0.weight f4 [32, 3]
0	0x3f79ddca	0.9760405
1	0x3efe6443	0.4968587
2	0x40916f0b	4.544805
3	0xc04f5f42	-3.240189
4	0xc0b1fa87	-5.561832
5	0xbe858370	-0.2607684
6	0xc04c7851	-3.1948435
7	0xc0d50ca3	-6.6577926
8	0xbe83f9cd	-0.2577652
9	0xc03d033a	-2.953322
10	0xc050b900	-3.2612915
11	0xbe3a302b	-0.18182437
12	0xbe3676c3	-0.17818742
13	0x3e0cb268	0.13739932
14	0xb9eb4c66	-0.00044879614
15	0x3fd98faa	1.6996968
16	0x3fcf7ee7	1.6210603
17	0xbfa217f4	-1.266356
18	0xbf86b807	-1.0524911
19	0x41094c8e	8.58119
20	0x3eeedafa	0.4665144
21	0x4095a94e	4.676917
22	0xbef6a6ec	-0.48174226
23	0x3e829b7e	0.25509256
24	0xbffab06e	-1.9585092
25	0xbfc40f7f	-1.5317229
26	0x3ebf4809	0.37359646
27	0x3fde4f4e	1.7367952
28	0x4046b3e7	3.1047304
29	0x405d7bfb	3.4606922
30	0xc00bd768	-2.1850224
31	0xbf468084	-0.7753985
32	0x3f00eaf2	0.503585
33	0xc041d221	-3.0284503
34	0x3fd50144	1.6641011
35	0x3f421b84	0.75823236
36	0xc065fd0f	-3.5935705
37	0x40b75fa0	5.730423
38	0x3f14c6f8	0.581161
39	0x406ab9ac	3.6675825
40	0xc0b5231e	-5.660537
41	0xbe82140c	-0.2540592
42	0x4024bb26	2.5739226
43	0x3fd924f1	1.6964399
44	0x3c7f7bbe	0.015593467
45	0xc0832b2c	-4.09902
46	0x40ca25f2	6.317132
47	0x3f33f03d	0.7028845
48	0xc04f37ea	-3.2377877
49	0x4016fee1	2.3593066
50	0x3f1f5ed8	0.62254095
51	0xc031d436	-2.7785773
52	0x3ff96b8a	1.9485943
53	0x3f268e4d	0.65060884
54	0xc067fa81	-3.6246645
55	0xc0b42fe4	-5.630846
56	0xbe945c0f	-0.28976485
57	0xbe8e5e2e	-0.27806228
58	0x3f7b5836	0.98181474
59	0x3f024e12	0.50900376
60	0x3f8ea843	1.1145099
61	0x3f020018	0.50781393
62	0x3eb03578	0.34415793
63	0xc04a98a7	-3.1655672
64	0x40256d16	2.584783
65	0x3f115aa7	0.5677895
66	0x3faa8794	1.3322625
67	0x3f15b892	0.58484757
68	0x3e7b6d80	0.2455349
69	0x3ec17e24	0.3779155
70	0x3f8376ee	1.027067
71	0xc0213b2f	-2.5192373
72	0xc03bb2f5	-2.9327977
73	0xc03fcb3b	-2.9967792
74	0xbe202ec0	-0.15642834
75	0x40526b07	3.2877824
76	0x3f9cef5b	1.2260545
77	0x3d988d97	0.07448881
78	0xbe00ebca	-0.12589946
79	0x402a03b0	2.656475
80	0xbe036965	-0.12833174
81	0xc021f209	-2.5303977
82	0x410d6bd3	8.838824
83	0x3f0cd23f	0.5500831
84	0xbf00ebdc	-0.5035989
85	0x3f90f19d	1.1323735
86	0xbe6688de	-0.22513148
87	0x3f41524d	0.75516206
88	0x3f0e37fb	0.5555417
89	0x3e9e133e	0.30874056
90	0x3fb77aa2	1.43343
91	0x3ec7dc01	0.39035037
92	0xc02e4804	-2.7231455
93	0xbf8f31cc	-1.1187072
94	0x40f3c76f	7.618095
95	0x3ece8a44	0.40339863

critic.0.bias f4 [32]
0	0x3f60c81d	0.8780535
1	0x402c3923	2.6909873
2	0x4028a87f	2.6352842
3	0x401d01da	2.453238
4	0xbe895b69	-0.26827553
5	0x4007aacf	2.1198003
6	0xbee3ef47	-0.44518492
7	0x3fb5d905	1.4206854
8	0x4066b003	3.604493
9	0x3fed55f5	1.8541857
10	0x405eec57	3.483175
11	0x403c50a3	2.9424217
12	0x3fff0881	1.992447
13	0xc07bcb32	-3.934277
14	0x402ee023	2.7324302
15	0x4017ba3e	2.3707423
16	0x402055ad	2.5052292
17	0x40254aec	2.5826979
18	0x4041abf5	3.0261204
19	0x403a3dc5	2.91002
20	0x403ee67c	2.9828176
21	0x40142dcd	2.3152955
22	0x4024fac4	2.5778055
23	0x3fdc37fc	1.7204585
24	0x4021b7cf	2.5268438
25	0x40129ece	2.2909427
26	0x402607b5	2.5942204
27	0x3f46fd26	0.77730024
28	0x40177254	2.366353
29	0x401daf0e	2.4638095
30	0x3fa25605	1.2682501
31	0xbf062759	-0.5240379

critic.2.weight f4 [1, 32]
0	0x40639094	3.5556993
1	0xc07da967	-3.9634645
2	0xc07a45c8	-3.910509
3	0xc018eeb2	-2.3895688
4	0x3db05a4f	0.08610975
5	0x3eede0ed	0.46460667
6	0xc03ffd51	-2.9998362
7	0xbfeb71d2	-1.839411
8	0xbfbd8f03	-1.4809269
9	0x402cedc7	2.7020128
10	0xbfe18ccd	-1.7621094
11	0xbfe929cd	-1.8215882
12	0xc02bda23	-2.685189
13	0xc10956b6	-8.58367
14	0xbedadd1f	-0.42746827
15	0xc045d340	-3.0910187
16	0xc01f0c8c	-2.4851408
17	0xbfedb474	-1.8570695
18	0xc062e2f5	-3.5451024
19	0xbf0335d4	-0.5125401
20	0xbf5efb6f	-0.8710241
21	0xc02baf5d	-2.6825783
22	0xbef2a439	-0.47390917
23	0x3fdc4976	1.7209918
24	0xbfdaa0e5	-1.7080351
25	0xbf3929c7	-0.7232937
26	0x3bc4dfec	0.006008139
27	0xc0647683	-3.5697334
28	0x3dc12de0	0.09432578
29	0xbed60d62	-0.41807085
30	0x3ff50475	1.9141985
31	0xc0161429	-2.3449805

actor.0.weight f4 [32, 3]
0	0xbf362c55	-0.71161395
1	0x3f65b330	0.89726543
2	0x3f09f97e	0.5389632
3	0xbf6f0d78	-0.93379927
4	0xbf47c814	-0.7803967
5	0xbec81b51	-0.3908334
6	0x3dac477d	0.08412073
7	0xbe846ab4	-0.25862658
8	0x3e88d92f	0.26728198
9	0x3f7444d7	0.9541754
10	0xbf0fe3a8	-0.5620675
11	0xbee4d138	-0.4469087
12	0xbdd5600b	-0.10418709
13	0xbf0e8447	-0.5567059
14	0x3eab4190	0.33448458
15	0x3e3eabcd	0.18620224
16	0x3ebd685d	0.36993685
17	0x3f132d42	0.5749093
18	0xbbc542ce	-0.0060199266
19	0x3d11b31e	0.03557121
20	0x3cb8fcc3	0.022581464
21	0x3f83c826	1.0295455
22	0xbd97398e	-0.073840246
23	0xbed0be5b	-0.4077023
24	0xbe1d9876	-0.1539019
25	0xbe46ce34	-0.19414598
26	0xbbda7700	-0.006667018
27	0xbf0cbd8f	-0.54976743
28	0x3e60534a	0.21906772
29	0x3ee41870	0.44549894
30	0xbf737051	-0.95093256
31	0x3f115654	0.5677235
32	0x3e38c3c8	0.18043435
33	0x3e3da58f	0.18520187
34	0x3d94032d	0.07227168
35	0x3e8e7e29	0.27830628
36	0x3f7c8d33	0.9865295
37	0xbf81952c	-1.0123649
38	0x3c55baed	0.013045055
39	0xbf979f51	-1.1845495
40	0xbe7b5662	-0.24544671
41	0x3e6b72a1	0.22992946
42	0x3f7dd9f1	0.9916068
43	0x3f131076	0.5744699
44	0x3ebf9ab5	0.3742272
45	0xbea49fef	-0.3215327
46	0xbeac40ba	-0.33643132
47	0x3ede9569	0.43473366
48	0xbf836382	-1.0264742
49	0xbec31b3c	-0.38106716
50	0xbec2ed75	-0.3807179
51	0xbea28447	-0.31741545
52	0xbfb13236	-1.3843448
53	0xbea3c733	-0.31987914
54	0xbf093cf2	-0.5360862
55	0x3f8c8d80	1.0980682
56	0xbed8690e	-0.4226765
57	0xbd023200	-0.031785965
58	0x3f302fd2	0.6882297
59	0xbef81a35	-0.48457494
60	0xbf8f7315	-1.1206995
61	0x3f4e61a7	0.80617756
62	0x3e81ab5a	0.25326043
63	0x3fa6015d	1.2969166
64	0x3f7790ed	0.96705514
65	0x3e31c9dc	0.1736216
66	0x3f2ed600	0.6829529
67	0xbf8aa33e	-1.0831068
68	0xbeb00753	-0.34380588
69	0xbdbc0cc8	-0.09182125
70	0x3f1bc3a5	0.60845405
71	0xbed305c8	-0.41215348
72	0x3f157035	0.5837434
73	0x3fb1c390	1.3887806
74	0x3f0f469d	0.5596712
75	0x3f0a247a	0.5396191
76	0x3d127cd2	0.03576357
77	0x3ef592fd	0.47963706
78	0x3f80b491	1.0055104
79	0xbf66f239	-0.9021335
80	0xbdb40817	-0.087906055
81	0xbed2eab2	-0.41194683
82	0xbf4f0655	-0.80869037
83	0xbf1681b8	-0.58791685
84	0x3f0a71a3	0.54079646
85	0x3f6f6c12	0.9352428
86	0x3ea7fb69	0.32808998
87	0x3f3a9786	0.72887456
88	0xbf193513	-0.5984661
89	0xbf11b648	-0.56918764
90	0x3ea572b5	0.32314077
91	0xbf9b4c87	-1.2132729
92	0xbe8fb73e	-0.2806949
93	0xbf09466b	-0.53623074
94	0x3f20100c	0.62524486
95	0x3eb973cf	0.36221167

actor.0.bias f4 [32]
0	0x3dfe8609	0.12427909
1	0x3d078887	0.033089187
2	0x3f2c67cd	0.6734589
3	0xbf202d23	-0.62568873
4	0x3f40a7aa	0.75255835
5	0xbc447a55	-0.011992057
6	0x3f22829d	0.6348055
7	0xbf3df96e	-0.74208724
8	0xbe9cebae	-0.3064856
9	0x3e39ab0b	0.18131654
10	0x3f05116e	0.5197972
11	0x3ebe613d	0.37183562
12	0xbeb4d153	-0.35315952
13	0xbe332855	-0.17495854
14	0xbf456699	-0.77109677
15	0x3eff4d46	0.49863642
16	0x3e8e0fc1	0.27746394
17	0xbddf0a91	-0.10890687
18	0x3f5f2535	0.8716615
19	0xbfa3b884	-1.2790685
20	0x3f0c81d3	0.54885596
21	0x3f0a9ae6	0.54142606
22	0xbe411209	-0.18854536
23	0x3f74fde8	0.9569993
24	0xbe0eae73	-0.13933735
25	0xbea1bff7	-0.3159177
26	0xbe3e039a	-0.18556061
27	0x3d85e9ad	0.06538711
28	0x3eb4ea9a	0.35335237
29	0xbe511697	-0.20418774
30	0x3e684dfe	0.22686002
31	0x3e0575f2	0.13033274

actor.2.weight f4 [1, 32]
0	0x3e65cdc3	0.22441773
1	0xbe8b38ef	-0.27191874
2	0x3e38ffc3	0.18066315
3	0x3edfb2f1	0.4369121
4	0x3e9f29b6	0.3108651
5	0xbe4ecfd3	-0.20196466
6	0xbe142caa	-0.14470163
7	0x3f57087a	0.8399731
8	0x3e15b4df	0.14619778
9	0x3daef5c1	0.085429676
10	0x3e80eb7c	0.2517966
11	0x3e0322a4	0.12806183
12	0x3f81da08	1.0144663
13	0x3d996ba1	0.07491232
14	0xbf9e1f1c	-1.2353244
15	0x3deefc55	0.11669222
16	0xbe7a5d7e	-0.24449727
17	0xbe7b0596	-0.2451385
18	0xbe885470	-0.2662692
19	0x3f5d3c81	0.86420447
20	0x3e788ffe	0.24273679
21	0xbebcb90f	-0.36859939
22	0x3ee78558	0.4521892
23	0xbf45db0d	-0.7728737
24	0xbec57672	-0.3856693
25	0xbe724559	-0.23659267
26	0x3f2c46c9	0.6729551
27	0xbe664274	-0.22486287
28	0xbdfde504	-0.12397197
29	0x3ed09fcc	0.40746915
30	0x3f44b723	0.76841944
31	0x3e5f4712	0.21804455
